converter/checkpoints/HFET/IdVd/idvd_3_curves_linear_scale_poly_hch_hAlGaN_filter.pth (torch, 466831 bytes, 2 tensors)

linear.weight f4 [18, 6463]
000000 b6 25 78 3e 50 88 d5 bc 07 e4 7a 3e f4 be 8e 3d
       0.24233136 -0.026065975 0.24501048 0.06970015
000010 d5 04 8e 3d 69 f3 45 bd dd 27 98 3d 21 f4 e1 3d
       0.069345154 -0.048327837 0.07429478 0.11032892
000020 91 24 82 bc 49 a8 6c bc ae 6e 01 bd 3d 95 3a bd
       -0.015886577 -0.014444419 -0.031599693 -0.04555248
000030 e4 8d 7a bd 76 90 2e bd 85 fc 3f bd c3 77 09 3e
       -0.061170474 -0.042618237 -0.04687168 0.13424592
000040 e9 b8 11 3d 5f 0d bd 3d 17 52 d3 3d cd 20 f5 3d
       0.035576735 0.09231066 0.10318392 0.11969147
000050 64 c6 ea 3d 3a 6a 78 bc df f3 53 bc b6 eb d8 3b
       0.11463621 -0.015162045 -0.012936561 0.006619896
000060 f1 b8 22 bb 59 b8 fe bc 80 f3 17 3d 1d 8b 98 bd
       -0.0024829472 -0.031093763 0.037097454 -0.07448409
000070 cb c0 b9 3c 68 75 ba bc b1 dc 08 be 3b 17 ab bd
       0.022674939 -0.022761062 -0.13365437 -0.0835404
000080 a2 eb 68 bd 26 90 c6 3c 9c e2 8d 3c e0 12 70 3d
       -0.056865342 0.024238657 0.01731997 0.05861175
000090 4e cd de bb 77 d5 e4 bb b7 1d 85 bc a9 58 00 bd
       -0.0067993766 -0.006983455 -0.01624952 -0.031334553
0000a0 1f 59 a1 bc 8f b0 a3 bc b8 0e fa bb 0a fa 35 3c
       -0.019695817 -0.01998165 -0.007631149 0.011106977
0000b0 51 8b 1c bd f9 45 9f bc cf 92 54 3d 45 ab f8 3b
       -0.0382188 -0.019442545 0.05189782 0.0075887763
0000c0 83 45 d2 bb f5 c5 27 bd 01 42 73 bd 0e 05 23 bd
       -0.006416978 -0.04096027 -0.059389118 -0.039799742
0000d0 dc 0b 30 bd 0a 57 ed bb cb 8f 00 bd a6 81 84 bc
       -0.04298006 -0.007243042 -0.03138713 -0.016175102
0000e0 f3 89 75 bc 25 0e 1d bd 4f 8e 1c bd 04 d3 80 bd
       -0.014986503 -0.038343567 -0.038221654 -0.06290248
0000f0 f5 60 30 bd c0 f3 46 bd 68 ab 0b bd 43 27 80 bd
       -0.043061215 -0.048572302 -0.034099013 -0.062574886
000100 67 62 a0 3d 21 f7 38 bd 98 95 07 3d 87 09 93 3b
       0.07831269 -0.045157555 0.033101648 0.0044872197
000110 ba 9c 2e 3c bf a5 ab 3b 63 60 01 bd 42 05 d7 bc
       0.010657484 0.0052382643 -0.031586062 -0.026247624
000120 ec 6e b5 3d a6 30 9e bc 94 f3 5b bd b5 e5 b8 3c
       0.08859047 -0.019310307 -0.05369909 0.02257047
000130 7e 34 d4 3c 95 29 12 3d 9a bc 10 3d 0c de 71 3d
       0.025903936 0.035684187 0.035336114 0.05904965
000140 d9 7d 9c 3c 00 1e 21 3d 55 a8 72 3d 8e b4 11 3d
       0.019102978 0.03933525 0.059242565 0.03557258
000150 2a de b0 3d c4 db 76 bc 28 d4 cd 38 ab fc 2c bd
       0.086361244 -0.015067045 9.814679e-05 -0.04223315
000160 18 f7 bf bc 0f 61 a5 bc b4 d6 97 3a 22 30 bc 3b
       -0.023433253 -0.020187883 0.0011584372 0.0057430426
000170 51 02 e2 3c 90 07 0c 3c be ff 53 bd 58 5e be bc
       0.027588995 0.008546725 -0.051757567 -0.023238346
000180 35 c2 b2 3c 84 c2 86 3b 94 06 b0 bb 21 e4 4a bd
       0.02182112 0.0041125435 -0.005371878 -0.049533967
000190 b7 a7 81 3c 4e 77 bf bc 0e 11 0c 3c c7 43 70 bc
       0.015827043 -0.023372319 0.008548988 -0.014664597
0001a0 63 c4 be bd df ce 87 bd fd 56 77 bd 63 b3 9c bc
       -0.093148015 -0.066312544 -0.060385693 -0.019128507
0001b0 35 e2 2d bd e7 a1 b2 bc 3f bc c8 bd 67 b8 54 bd
       -0.042452056 -0.021805717 -0.0980153 -0.051933672
0001c0 54 51 d1 bd 5e 83 a3 bd ee 4b 89 bd 5c f8 89 bd
       -0.1022059 -0.07984041 -0.067039356 -0.06736824
0001d0 35 23 e3 3a 53 22 a8 bc 9d 32 1d bc a2 f6 0b bb
       0.0017329218 -0.02052418 -0.009594587 -0.0021356721
0001e0 03 e6 80 3b fc c7 19 bd 91 be 44 3b 42 1f 94 bc
       0.0039336695 -0.037544236 0.0030020813 -0.018081311
0001f0 95 5f 8d bc 6b 27 7f bb a8 77 79 3b c0 97 76 bd
       -0.017257491 -0.0038933407 0.0038065705 -0.060203314
000200 92 47 31 bc 90 91 b2 bc 94 da 3f 3d 3a f4 1b 3c
       -0.010820286 -0.021797925 0.04683931 0.009518677
000210 2f 05 4f bd 3e 26 f0 3c 6e fe 07 bb ad 69 21 bc
       -0.050542053 0.02931511 -0.0020751017 -0.009851855
000220 8d 7c 9a bc 3c b7 c3 bc ed fa 16 bb f3 4e 5d 3b
       -0.018858219 -0.023891084 -0.0023037747 0.0033768981
000230 26 a1 7e 3c 9c ce c1 bc d1 e4 42 3c 34 2a e0 bc
       0.0155413505 -0.02365809 0.011895374 -0.027363874
000240 90 a1 a6 bb 33 4e 8a 3c ee 6e 22 3c a3 82 81 3c
       -0.0050851777 0.016882991 0.009914143 0.015809363
000250 d5 83 14 3c 95 6b 85 bd 3f d7 53 bb d5 fc ce bb
       0.009064634 -0.0651466 -0.0032324342 -0.006316761
000260 e0 d4 27 bc 1a 57 53 bd b5 64 04 bc 16 fc 53 bd
       -0.010243624 -0.05159674 -0.008080651 -0.05175408
000270 1e 11 e0 3c 03 ce 6b bc fa 16 aa bc 80 3f a6 bc
       0.027351912 -0.014392379 -0.02076291 -0.020293951
000280 f1 01 86 3d 4b f3 db 3b ae e3 ba bb a4 8c 99 3b
       0.06543339 0.0067123524 -0.005703411 0.004685955
000290 8a 7f f1 3c dc bc 82 3c 67 4e 56 bc 98 5f ef 3b
       0.02947976 0.015959196 -0.013080216 0.007305097
0002a0 9b 4f 78 bc c3 6a 32 bc 63 a9 8c bc 76 76 5a bb
       -0.015155698 -0.010889712 -0.017170614 -0.0033334768
0002b0 0e a5 94 3c 4f de d6 bb 3f c6 d4 bc 3c 3d 9c bb
       0.01814511 -0.006557263 -0.025973437 -0.004768042
0002c0 ae 99 00 bd da 0d 18 3c 8b 58 30 3c ea 6b 12 bd
       -0.03139656 0.009280646 0.010763298 -0.035747446
0002d0 b8 ad 24 3c ea 5f 43 3c b0 24 00 bb 1b 05 e5 bc
       0.010051183 0.011924723 -0.0019553117 -0.027956536
0002e0 47 93 97 bc c9 15 76 3c 51 69 03 3c e8 e5 ce bc
       -0.018502844 0.015019842 0.008020715 -0.025256112
0002f0 7d e2 92 bc 61 19 aa bb 5d 45 94 bb b9 52 a3 bc
       -0.017930264 -0.0051910137 -0.0045248703 -0.019936906
000300 d4 1d df 3b 06 b0 5e 3b d3 6f 6c bc f9 69 16 bb
       0.0068089757 0.003397943 -0.014430958 -0.0022951348
000310 74 19 13 bc 58 4a 42 bc d0 88 9c bb c3 79 24 bc
       -0.0089782365 -0.011858545 -0.0047770515 -0.010038796
000320 5c b6 17 bd 5f de c8 bc ad e8 02 bc c0 ce e8 bc
       -0.037039146 -0.024520097 -0.007990045 -0.028418899
000330 9c ed f2 3c ca 3b 84 bd cc e7 3f bd 55 fc 53 bd
       0.029654317 -0.06456716 -0.046851918 -0.051754314
000340 4e 50 bb bc 9c 0c 42 bc 0d b8 4e bd ab 62 23 bd
       -0.02286544 -0.011843827 -0.050468493 -0.03988902
000350 87 3a 82 3b b6 5b 0c bd 4e a4 43 bd 46 8c 97 3c
       0.003974262 -0.03426715 -0.047764115 0.018499505
000360 71 00 47 bc bb 97 13 bd 34 2f bb bc 5a 6d 67 bd
       -0.012146101 -0.036033373 -0.022849657 -0.05650077
000370 2b cb 38 bd 4a 5c 83 3b 1d 77 04 bd 33 73 a0 bc
       -0.04511563 0.0040088044 -0.032340158 -0.019586181
000380 b9 dc 3c bd b6 c5 e1 bc ba 72 dd bc 24 e1 8b 3c
       -0.046108935 -0.027560096 -0.027032245 0.017075129
000390 64 af 37 bd d4 f9 94 bd 7a fd 55 bd c3 45 7a 3d
       -0.044845 -0.072742134 -0.052243687 0.061101686
0003a0 65 31 df 3b 14 13 5a 3a 85 76 78 3d 42 cb 12 3d
       0.006811308 0.0008318883 0.060659904 0.035838373
0003b0 ed 9a 1a 3d df ae d1 bc 49 1d 0d bd 0b 17 5a bd
       0.037745405 -0.02559608 -0.034451757 -0.05324463
0003c0 88 fb 2a 3d 68 55 80 3c 89 1e 1f 3b 43 ad 2a bc
       0.041743785 0.015665725 0.0024279675 -0.010417285
0003d0 ba a1 8a 3b 22 ee cf bb 4b 1c 78 3c b0 45 e2 3b
       0.004230705 -0.0063455263 0.015143464 0.00690528
0003e0 94 81 22 bc 67 6d d4 3c 7c ae 40 3c 73 74 b2 bb
       -0.009918589 0.025931073 0.01176035 -0.0054460107
0003f0 21 f9 67 3c 2f 6d a3 3a d2 76 3f 3c 5b a0 8d 3c
       0.014158518 0.0012468452 0.011686044 0.017288378

linear.bias f4 [18]
000000 0f 91 6a 3e 41 43 70 3e 9d 66 aa 3d 72 eb cb 3d
       0.22906898 0.23463155 0.08320353 0.09957017
000010 63 2d ce 3d c7 59 80 3d 7f a1 4f 3e e6 1f 9d 3e
       0.100672506 0.06267124 0.2027645 0.306884
000020 16 a1 93 3e 76 d9 1f 3e 72 4f 01 3e 22 9a 57 3d
       0.28833836 0.15610299 0.12627962 0.052637227
000030 7c 67 4e 3e dd 31 9a 3e 98 4e 53 3e 86 2e 34 3e
       0.20156664 0.30116168 0.2063545 0.17595872
000040 b6 1c 90 3e 55 0f 34 3e
       0.28146905 0.17583974
