converter/checkpoints/CNTFET/cntfet.pth (torch, 206529 bytes, 28 tensors)

embedding.weight f4 [32, 1, 1]
-0.0004846957 -0.5581495 0.0007340779 -0.015436475 -0.0781529 -0.004217719 -0.15878569 5.5410635e-07
-0.03057553 0.8590268 0.7402994 -0.026579164 -0.23645847 -0.89534664 0.0018887479 0.0045061586
0.0039618034 -0.5149 0.9155947 -0.7752327 -0.03344195 0.0015273199 0.44603264 -0.003309883
0.0022231308 -0.004367422 -0.007988691 0.0031408472 0.27600613 -0.95056933 0.28026664 0.08382193
00000000: c11e feb9 e3e2 0ebf 226f 403a 45e9 7cbc
00000010: a10e a0bd cb34 8abb b798 22be e6bd 1435
00000020: 8979 fabc 2ee9 5b3f 4384 3d3f 8cbc d9bc
00000030: 2b22 72be 7035 65bf dd8f f73a 66a8 933b
00000040: 04d2 813b 7dd0 03bf 6a64 6a3f a675 46bf
00000050: 6dfa 08bd 5a30 c83a 645e e43e 9fea 58bb
00000060: f2b1 113b 971c 8fbb 00e3 02bc acd6 4d3b
00000070: ad50 8d3e 8358 73bf 1c7f 8f3e d5aa ab3d

embedding.bias f4 [32]
-0.0035868038 0.13307822 -0.0037440257 0.18996064 -0.054573387 -0.0029008687 -0.07468404 -0.00027586357
0.27716446 -0.43543485 -0.47303876 0.2901176 0.580927 0.10182244 0.0024123243 0.0011624573
0.0009983195 -0.63120365 -0.65084606 0.6079828 0.43881485 0.0010922966 -0.4890123 -0.0002821484
0.0033292668 0.00058977626 0.10712515 0.0018604004 -0.07832384 0.11055464 0.032109812 -0.316715
00000000: 9510 6bbb a845 083e 545e 75bb 0b85 423e
00000010: 5888 5fbd 801c 3ebb f2f3 98bd c8a1 90b9
00000020: 80e8 8d3e 51f1 debe 2332 f2be 4b8a 943e
00000030: a2b7 143f 4988 d03d 1618 1e3b 985d 983a
00000040: 0bda 823a 9096 21bf d99d 26bf c3a4 1b3f
00000050: 57ac e03e 642b 8f3a d25f fabe 51ed 93b9
00000060: d42f 5a3b 379b 1a3a 6e64 db3d aed8 f33a
00000070: 4068 a0bd 796a e23d 9485 033d 7828 a2be

bigru.weight_ih_l0 f4 [96, 32]
0.2561279 0.20511562 -0.05948234 -0.33797443 0.07099772 0.24011669 0.5405833 0.050093494
-0.20927595 0.6293928 0.040228516 0.04973254 -0.37557638 0.37011173 -0.30297467 0.06284023
-0.07768602 0.000182241 0.6412903 -0.25011656 -0.35314307 -0.65542096 -0.026311813 0.22445248
-0.46241692 0.47750247 -0.23792253 -0.09793505 -0.60475266 0.27672046 -0.28143492 0.2663961
-0.20197931 0.3900464 -0.9162614 -0.80037457 0.5423407 0.5615076 0.08649033 0.119388685
-0.35315314 0.22998486 -0.21408471 -0.39615524 -0.06396804 0.24132311 0.40227017 0.26782364
-0.51870537 -0.18053691 -0.31617352 0.0055455435 -0.28888956 -0.50013644 0.32653517 -0.0013026918
0.13138106 -0.632407 -0.51130605 -0.1882666 -0.18575501 0.38022316 -0.141432 0.28079185
-0.49953678 0.53072566 -0.30938268 -1.0831498 0.34049258 -0.07518867 0.5737839 0.18540342
-0.41303352 -0.015425129 -0.26157168 -0.7867228 -0.5410721 0.26363602 0.2645759 0.1898262
-0.20015624 0.23595154 -0.33847025 -0.102720946 -0.08234849 0.19455634 0.13705295 -0.05325237
0.36643538 -0.54133165 -0.20301238 0.09052815 -0.39304695 0.5198998 -0.2819519 0.8225887
0.71142197 -0.6757942 0.8098878 0.9202362 -0.545274 -0.66617656 -0.41110677 -0.45798862
1.4377447 -0.54545134 -0.51568645 0.8635416 1.1853563 -0.44326708 -0.27643707 -0.3938159
0.98329824 -1.3900669 -0.7347251 0.6225731 1.1014495 -0.060367707 -0.8823789 0.8315403
-0.6937063 -0.026786745 1.4322956 1.1666529 0.6424013 0.19445528 0.75998324 -1.4978399
-0.20194696 -0.95910543 0.14472166 -0.34521443 -0.4846844 0.11014232 -0.5137698 0.5216484
-1.1992357 1.9889419 1.8071471 -0.21530885 -0.8956327 -1.2935627 -0.36114556 -0.2916308
0.22430737 0.22678232 1.9108098 -1.6922171 -0.031985752 -0.32923278 1.4173957 0.7151522
-0.19276926 0.7686062 0.33217764 -0.052287698 0.59960747 -0.8097882 0.147803 0.89851785
0.31221578 -0.82488334 -0.4800239 0.15588853 -0.554116 -0.87167394 -0.35193852 -0.920962
0.2701587 0.029425617 -0.13232793 0.44654143 0.17258266 -0.42043307 -0.22850876 -0.29999477
0.2583266 -0.8685268 0.12863754 0.02093763 -0.0073465197 -0.74482584 -0.09223508 -0.13648896
-0.64163214 -0.31598893 0.43557936 0.504884 0.37466297 -0.42972544 0.26598516 0.14337827
0.19801533 -0.0867266 0.39526337 0.5944246 -1.6713959 -0.48412997 -1.2345926 0.3731067
-0.05934494 -0.17235366 0.09872098 0.80379885 0.17604853 -0.50221646 -0.07224685 -0.47506252
0.7238304 -1.1351902 -0.29391643 0.04977235 0.27598554 -0.4366709 -0.17478509 0.8432069
0.0140795475 0.11643157 0.7422023 0.43766725 0.66482997 -0.9794437 1.7599999 -0.4342841
-0.6662683 -0.6920669 -0.6217064 0.37097976 -0.52362 -0.77756184 -0.5755621 -0.20341711
0.23473479 0.14919238 0.2517747 0.5450194 0.08542393 -0.52105075 0.28557262 0.41559216
-1.020171 -0.38878876 -0.0029973616 -0.043685824 0.29491478 0.5176474 -0.300493 0.3018525
0.021078581 -1.4541705 0.23514877 0.3283539 0.68314177 -1.1686964 0.36824146 -0.07185435
00000000: 3223 833e d409 523e c1a3 73bd fc0a adbe
00000010: 4167 913d 26e1 753e ab63 0a3f d62e 4d3d
00000020: 6f4c 56be e31f 213f a8c6 243d 59b4 4b3d
00000030: 8c4b c0be 497f bd3e 7f1f 9bbe 61b2 803d
00000040: d919 9fbd f217 3f39 9a2b 243f 470f 80be
00000050: 2bcf b4be abc9 27bf df8b d7bc dfd6 653e
00000060: e9c1 ecbe 347b f43e f7a1 73be 2c92 c8bd
00000070: 12d1 1abf 4eae 8d3e 3d18 90be 1265 883e
00000080: aad3 4ebe 29b4 c73e 1b90 6abf 59e5 4cbf
00000090: d7d6 0a3f f6be 0f3f d821 b13d 0e82 f43d
000000a0: 7dd0 b4be 2781 6b3e 0639 5bbe dcd4 cabe
000000b0: ad01 83bd 681d 773e 5bf6 cd3e 2e20 893e
000000c0: e0c9 04bf abde 38be 7fe1 a1be 64b7 b53b
000000d0: 55e9 93be f108 00bf 9e2f a73e 15bf aaba
000000e0: c288 063e 6de5 21bf f4e4 02bf f6c8 40be
000000f0: 9036 3ebe 9cac c23e 8dd3 10be f3c3 8f3e
00000100: 49c3 ffbe a3dd 073f 6867 9ebe a7a4 8abf
00000110: 0b55 ae3e 84fc 99bd 80e3 123f 65da 3d3e
00000120: 2179 d3be aeb9 7cbc b9ec 85be aa66 49bf
00000130: b383 0abf 4dfb 863e 7e76 873e cd61 423e
00000140: c2f5 4cbe 489d 713e f94b adbe 5c5f d2bd
00000150: 53a6 a8bd c739 473e 9c57 0c3e 281f 5abd
00000160: 6b9d bb3e b694 0abf 7ae2 4fbe d366 b93d
00000170: 733d c9be 2718 053f 005c 90be 2c95 523f
00000180: c01f 363f d900 2dbf cf54 4f3f 9994 6b3f
00000190: 1497 0bbf 8c8a 2abf 967c d2be 7c7d eabe
000001a0: 0508 b83f b3a2 0bbf 0704 04bf 1011 5d3f
000001b0: c1b9 973f e7f3 e2be 2989 8dbe 3da2 c9be
000001c0: 6fb9 7b3f b6ed b1bf f216 3cbf f360 1f3f
000001d0: 4cfc 8c3f 2144 77bd 95e3 61bf d3df 543f
000001e0: bc96 31bf e06f dbbc 7655 b73f e254 953f
000001f0: 6974 243f 491f 473e 438e 423f 38b9 bfbf
00000200: 2fcb 4ebe ef87 75bf ea31 143e f2bf b0be
00000210: 8e28 f8be 4c92 e13d 6b86 03bf c08a 053f
00000220: 8e80 99bf a695 fe3f 9950 e73f ec79 5cbe
00000230: 2f48 65bf 7693 a5bf 12e8 b8be a250 95be
00000240: d5b0 653e a039 683e 6a95 f43f 929a d8bf
00000250: 7e03 03bd 3391 a8be 396d b53f 3714 373f
00000260: 4e65 45be 60c3 443f 3013 aa3e a02b 56bd
00000270: e07f 193f 484e 4fbf ab59 173e 4405 663f
00000280: bfda 9f3e 8e2b 53bf b1c5 f5be 3ea1 1f3e
00000290: 8cda 0dbf 0626 5fbf 4931 b4be 2ac4 6bbf
000002a0: 3e52 8a3e fe0d f13c f980 07be 14a1 e43e
000002b0: 82b9 303e 0143 d7be 33fe 69be ea98 99be
000002c0: 6243 843e c657 5ebf 8fb9 033e 6585 ab3c
000002d0: 13bb f0bb e8ac 3ebf bfe5 bcbd c3c3 0bbe
000002e0: 0142 24bf 4dc9 a1be 4204 df3e 1440 013f
000002f0: d3d3 bf3e f904 dcbe 352f 883e c1d1 123e
00000300: 88c4 4a3e b79d b1bd f65f ca3e 362c 183f
00000310: 4df0 d5bf e2df f7be 2107 9ebf d707 bf3e
00000320: ae13 73bd 7a7d 30be 3a2e ca3d c3c5 4d3f
00000330: 1146 343e 4291 00bf 28f6 93bd 653b f3be
00000340: f34c 393f ea4d 91bf 377c 96be 17de 4b3d
00000350: fa4d 8d3e 5493 dfbe ddfa 32be 68dc 573f
00000360: e7ad 663c ad73 ee3d f800 3e3f ec15 e03e
00000370: 4c32 2a3f d3bc 7abf ad47 e13f 7c5a debe
00000380: 8f90 2abf 4c2b 31bf 2728 1fbf 0ff1 bd3e
00000390: f60b 06bf 4b0e 47bf 0a58 13bf 934c 50be
000003a0: 515e 703e e3c5 183e 9de8 803e 6486 0b3f
000003b0: bef2 ae3d 9563 05bf 9336 923e 7fc8 d43e
000003c0: f794 82bf 520f c7be 626f 44bb e8ef 32bd
000003d0: 12ff 963e 8a84 043f 38da 99be 698c 9a3e
000003e0: fdac ac3c 4222 babf d7ca 703e 011e a83e
000003f0: 61e2 2e3f d897 95bf 258a bc3e 6028 93bd

bigru.weight_hh_l0 f4 [96, 32]
0.3993928 -0.4523943 0.5154233 1.1852349 -0.5726071 0.42992365 1.5196936 -0.6223228
-0.004759195 -1.1724216 -0.08999742 0.98156434 0.43952465 -0.30990127 -0.19336289 1.0875648
0.3176072 0.03716353 -0.3311612 -0.68276423 -0.38833123 -0.23069811 -0.068562165 0.14103168
-0.29763594 -0.24194539 0.5872117 0.317081 -0.02714899 -1.2354743 -0.48650023 2.7708354
0.25332636 0.62572825 0.3890727 2.1785023 0.35492027 -0.5590587 -0.15405475 -0.60063297
-0.226997 -0.6651221 -0.5261644 0.35725355 -0.51676905 -0.4776788 -0.049878422 -0.16086641
-0.23704137 -0.3696665 0.54794616 -0.4142347 -0.49277323 -0.045853972 0.55593365 0.31104994
0.86221796 -0.20161892 2.4296296 -0.08931434 0.23503244 -0.063249335 0.2307764 1.1132805
0.53409237 0.18913487 -1.3408337 -0.71657175 0.5085352 -0.6813357 -1.809387 0.40706778
0.6910858 -0.4596601 1.427025 0.60212743 -0.4594139 -0.24103065 -0.8120636 -0.24250293
0.7778622 0.2845489 -0.19906607 -0.03497918 -0.67761314 1.5262935 0.9232544 -0.41080928
2.378845 0.9558719 0.16162354 -0.56084454 0.28813252 0.041321095 -0.71289444 -0.025892133
0.0029225084 -0.15116763 -0.2343422 0.15430981 -0.041666973 -0.25092947 -0.29780954 0.3015117
-0.9446063 0.3714308 0.0040653106 0.15777059 -0.05455248 0.0010760886 0.5939496 -0.016164951
-0.7756274 -0.22821228 -0.29330495 0.020681081 0.32564655 -0.4601044 -0.8157367 0.9204317
-0.3067247 0.15629679 -0.88393104 -0.5037969 -0.19383423 0.20079108 0.83839196 0.3653811
-0.51567817 -0.56715703 -0.76100737 0.12674761 -0.7776477 -0.12644243 0.11164414 0.04053988
0.03469364 -0.25370112 0.6395577 0.12075169 0.25066638 0.46603596 -1.1255019 0.1962686
0.72975034 0.2228163 -0.23455688 0.042392414 -0.8089385 0.70351857 0.5657226 0.40611038
0.4424368 0.08496076 0.45271367 -0.5083138 0.73261267 -0.8573526 -1.8184004 0.13682495
0.61873674 -0.017917119 -1.8224114 -0.5975343 -0.5707646 -2.0504193 1.9493581 1.290282
-1.5305609 -1.7380726 1.8163933 2.34975 -0.23452471 0.92605025 0.35671943 -1.2052809
-2.1646435 -2.336935 -0.34785283 0.13206294 -3.3028016 -2.3300776 3.3226302 2.7316523
-0.023522059 -2.2624698 0.49197653 0.54463243 1.1471512 -1.5590293 -0.0038357815 2.4355245
0.41334882 -0.19255042 -2.672297 -1.6650885 -0.32130238 0.29362148 -1.663896 2.747129
1.5438848 0.28904176 2.7759256 0.9230129 -0.005723411 -0.02192533 0.50918436 -0.18030187
-0.30933082 -0.19719629 0.9316455 -2.1038592 -1.1186972 -0.55217284 -0.3951996 -0.7056032
2.547655 1.6238029 1.2681978 1.6189177 -1.398098 -0.21743657 0.32857746 -0.021983067
0.06760913 0.4489089 0.677342 -1.1850107 0.46819854 -0.42627943 1.5049043 -0.007247112
0.63717914 1.2650813 -0.7068968 -0.9147877 0.4977668 0.4768606 -0.11209805 0.22083245
0.418811 0.93815094 0.03249291 -1.3166287 2.5782416 0.40010527 0.40507233 -0.64354175
-3.2980225 1.5116459 4.364552 1.5522014 -1.4030582 1.7865887 0.41302407 -0.19169566
00000000: 377d cc3e 3aa0 e7be c8f2 033f c7b5 973f
00000010: 6196 12bf f41e dc3e 5285 c23f 8c50 1fbf
00000020: 05f3 9bbb e911 96bf 9150 b8bd cd47 7b3f
00000030: 6009 e13e 61ab 9ebe ec00 46be 5335 8b3f
00000040: 699d a23e c938 183d f68d a9be a3c9 2ebf
00000050: 5ad3 c6be 203c 6cbe 526a 8cbd 9c6a 103e
00000060: bd63 98be 88c0 77be 8253 163f 7158 a23e
00000070: 8f67 debc 0624 9ebf 8f16 f9be 5e55 3140
00000080: feb3 813e ba2f 203f 8934 c73e 956c 0b40
00000090: 1cb8 b53e 791e 0fbf 87c0 1dbe 15c3 19bf
000000a0: e771 68be 7145 2abf b6b2 06bf f0e9 b63e
000000b0: fa4a 04bf 5192 f4be 514d 4cbd 2aba 24be
000000c0: f9ba 72be ed44 bdbe 3346 0c3f 9216 d4be
000000d0: c64c fcbe 60d1 3bbd ab51 0e3f f041 9f3e
000000e0: 51ba 5c3f 3175 4ebe 0d7f 1b40 70ea b6bd
000000f0: 58ac 703e de88 81bd a650 6c3e fa7f 8e3f
00000100: 47ba 083f 92ac 413e 70a0 abbf 3f71 37bf
00000110: 5d2f 023f 046c 2ebf fe99 e7bf 306b d03e
00000120: 00eb 303f 9258 ebbe c1a8 b63f 0625 1a3f
00000130: 4c38 ebbe bdd0 76be 66e3 4fbf b052 78be
00000140: fa21 473f 65b0 913e fad7 4bbe 5446 0fbd
00000150: 0e78 2dbf 965d c33f 665a 6c3f 9855 d2be
00000160: ff3e 1840 05b4 743f a480 253e 8293 0fbf
00000170: 1b86 933e 4f40 293d 4080 36bf bd1b d4bc
00000180: 8e87 3f3b b0cb 1abe 67f7 6fbe 6403 1e3e
00000190: fdaa 2abd d479 80be 7e7a 98be be5f 9a3e
000001a0: b8d1 71bf 2e2c be3e 4c36 853b 9d8e 213e
000001b0: 6c72 5fbd 8b0b 8d3a 150d 183f 5c6c 84bc
000001c0: 848f 46bf 7bb0 69be 112c 96be 5f6b a93c
000001d0: 25bb a63e ce92 ebbe 1fd4 50bf 69a1 6b3f
000001e0: 050b 9dbe 440c 203e 4e49 62bf d5f8 00bf
000001f0: 7b7c 46be 2d9c 4d3e dba0 563f 3b13 bb3e
00000200: 7c03 04bf 3431 11bf 61d1 42bf 20ca 013e
00000210: eb13 47bf 207a 01be afa5 e43d 250d 263d
00000220: eb1a 0e3d 1de5 81be 0eba 233f a94c f73d
00000230: 5857 803e 449c ee3e 7210 90bf a3fa 483e
00000240: ebd0 3a3f f529 643e ae2f 70be aba3 2d3d
00000250: 9816 4fbf cb19 343f 32d3 103f b3ed cf3e
00000260: 1487 e23e e8ff ad3d 16ca e73e da20 02bf
00000270: 818c 3b3f 767b 5bbf 58c1 e8bf d71b 0c3e
00000280: 8865 1e3f ecc6 92bc c744 e9bf 02f8 18bf
00000290: a11d 12bf 123a 03c0 9184 f93f f627 a53f
000002a0: 6be9 c3bf 2a79 debf 937f e83f 4e62 1640
000002b0: 3f27 70be a111 6d3f eea3 b63e a546 9abf
000002c0: 8589 0ac0 5890 15c0 c419 b2be 823b 073e
000002d0: 1a61 53c0 fe1f 15c0 f9a5 5440 64d3 2e40
000002e0: 55b1 c0bc 4ecc 10c0 59e4 fb3e 086d 0b3f
000002f0: dad5 923f 468e c7bf bc61 7bbb a2df 1b40
00000300: 75a2 d33e f02b 45be ea06 2bc0 9f21 d5bf
00000310: bf81 a4be 8e55 963e 8bfa d4bf f6d0 2f40
00000320: 049e c53f 48fd 933e c4a8 3140 934a 6c3f
00000330: 748b bbbb c09c b3bc e859 023f 0ea1 38be
00000340: 9c60 9ebe d3ed 49be 5280 6e3f a1a5 06c0
00000350: 7831 8fbf 335b 0dbf 9a57 cabe 69a2 34bf
00000360: c80c 2340 c6d8 cf3f 4e54 a23f b238 cf3f
00000370: e0f4 b2bf b1a7 5ebe 4e3b a83e d515 b4bc
00000380: a876 8a3d 63d7 e53e 4966 2d3f 6eae 97bf
00000390: b8b7 ef3e 4c41 dabe b4a0 c03f 2f79 edbb
000003a0: 2c1e 233f 2fee a13f 30f7 34bf 872f 6abf
000003b0: 4adb fe3e 1327 f43e aa93 e5bd e721 623e
000003c0: 656e d63e a92a 703f 4917 053d 4a87 a8bf
000003d0: e901 2540 99da cc3e a465 cf3e 27bf 24bf
000003e0: cd12 53c0 9d7d c13f 69aa 8b40 89ae c63f
000003f0: 6997 b3bf f0ae e43f e477 d33e de4b 44be

bigru.bias_ih_l0 f4 [96]
-0.31793362 -0.23657972 -0.5190449 1.0308068 -0.21270211 0.34542805 0.3235934 0.25964403
-1.0551223 -0.51458335 -0.14516631 0.097844325 -0.06909558 -0.12246961 -0.22698596 0.111269355
-0.36998716 0.053355124 -0.0401923 0.06851151 -0.7132068 -0.37724215 0.11116221 -0.71862835
0.076015115 -0.6035203 -0.3379902 0.68174714 -0.6462848 -1.3536618 -0.3046322 0.559893
-0.0902865 -0.040984508 0.297788 0.17284414 -0.06307327 -0.67922807 0.32873788 0.36719424
0.33864048 0.42539892 0.28616944 -0.5917991 -0.13811722 -0.10104639 -0.9116019 0.15035182
-0.5178914 -0.6058528 -0.01840641 0.42740387 0.39170435 0.082965665 -0.46971035 0.30988055
0.4144098 -0.49992967 0.09209704 -0.016710205 0.4009157 -0.028221631 1.779753 0.46785134
-0.098105855 -0.20379907 0.39140916 0.2671916 -1.760437 0.5834434 0.0994638 -0.10830821
-0.14400478 -0.05595911 -0.4062455 0.09317146 0.13113819 0.11905975 -0.14886282 0.3616282
-0.226049 -0.22189815 -1.1240848 -0.29461703 0.030971272 -0.16009371 0.12542099 0.14805704
-0.47147503 -0.05776101 -0.6829833 0.40442637 -0.05775435 0.002665112 -0.08687766 0.059556685
00000000: 32c8 a2be f441 72be 20e0 04bf 7af1 833f
00000010: 95ce 59be f2db b03e 09ae a53e 10f0 843e
00000020: 3f0e 87bf bcbb 03bf 7aa6 14be 9b62 c83d
00000030: fc81 8dbd 59d1 fabd 026f 68be 30e1 e33d
00000040: f56e bdbe e78a 5a3d aea0 24bd c34f 8c3d
00000050: b994 36bf e225 c1be 03a9 e33d 07f8 37bf
00000060: d0ad 9b3d 4e80 1abf 0d0d adbe fb86 2e3f
00000070: ec72 25bf ca44 adbf c0f8 9bbe 2655 0f3f
00000080: 21e8 b8bd 5fdf 27bd ab77 983e 0efe 303e
00000090: 8f2c 81bd e4e1 2dbf 5550 a83e e200 bc3e
000000a0: 4962 ad3e e3cd d93e cd84 923e 2580 17bf
000000b0: 9a6e 0dbe 69f1 cebd be5e 69bf d4f5 193e
000000c0: 8894 04bf 2b19 1bbf 0ac9 96bc aed4 da3e
000000d0: 798d c83e e7e9 a93d e07d f0be aaa8 9e3e
000000e0: 852d d43e c8f6 ffbe 5f9d bc3d d7e3 88bc
000000f0: d344 cd3e 0d31 e7bc f2ce e33f 368a ef3e
00000100: b9eb c8bd b4b0 50be c866 c83e 56cd 883e
00000110: 0056 e1bf 8c5c 153f adb3 cb3d b2d0 ddbd
00000120: fd75 13be 6135 65bd 69ff cfbe aed0 be3d
00000130: 1749 063e 99d5 f33d 7f6f 18be 5527 b93e
00000140: 6479 67be 4539 63be 03e2 8fbf 0bd8 96be
00000150: 77b7 fd3c 9bef 23be 5c6e 003e 449c 173e
00000160: 2d65 f1be cf96 6cbd fed7 2ebf f910 cf3e
00000170: d38f 6cbd 29a9 2e3b eaec b1bd b6f1 733d

bigru.bias_hh_l0 f4 [96]
-0.31793362 -0.23657972 -0.5190449 1.0308068 -0.21270211 0.34542805 0.3235934 0.25964403
-1.0551223 -0.51458335 -0.14516631 0.097844325 -0.06909558 -0.12246961 -0.22698596 0.111269355
-0.36998716 0.053355124 -0.0401923 0.06851151 -0.7132068 -0.37724215 0.11116221 -0.71862835
0.076015115 -0.6035203 -0.3379902 0.68174714 -0.6462848 -1.3536618 -0.3046322 0.559893
-0.0902865 -0.040984508 0.297788 0.17284414 -0.06307327 -0.67922807 0.32873788 0.36719424
0.33864048 0.42539892 0.28616944 -0.5917991 -0.13811722 -0.10104639 -0.9116019 0.15035182
-0.5178914 -0.6058528 -0.01840641 0.42740387 0.39170435 0.082965665 -0.46971035 0.30988055
0.4144098 -0.49992967 0.09209704 -0.016710205 0.4009157 -0.028221631 1.779753 0.46785134
0.2791515 0.038724147 0.2628785 0.26690665 -1.7395803 0.6430505 0.3035213 -0.10583814
0.08700517 -0.27155948 0.16834803 0.23773779 0.37629065 0.024951678 -0.16346176 0.31660578
-0.015922574 0.0826001 -1.2115147 0.03872393 -0.35891956 -0.593063 0.14417893 -0.5999359
-0.26023483 -0.14063068 -1.6079645 0.6692506 -0.09851644 0.2589987 -0.124164276 0.09363978
00000000: 32c8 a2be f441 72be 20e0 04bf 7af1 833f
00000010: 95ce 59be f2db b03e 09ae a53e 10f0 843e
00000020: 3f0e 87bf bcbb 03bf 7aa6 14be 9b62 c83d
00000030: fc81 8dbd 59d1 fabd 026f 68be 30e1 e33d
00000040: f56e bdbe e78a 5a3d aea0 24bd c34f 8c3d
00000050: b994 36bf e225 c1be 03a9 e33d 07f8 37bf
00000060: d0ad 9b3d 4e80 1abf 0d0d adbe fb86 2e3f
00000070: ec72 25bf ca44 adbf c0f8 9bbe 2655 0f3f
00000080: 21e8 b8bd 5fdf 27bd ab77 983e 0efe 303e
00000090: 8f2c 81bd e4e1 2dbf 5550 a83e e200 bc3e
000000a0: 4962 ad3e e3cd d93e cd84 923e 2580 17bf
000000b0: 9a6e 0dbe 69f1 cebd be5e 69bf d4f5 193e
000000c0: 8894 04bf 2b19 1bbf 0ac9 96bc aed4 da3e
000000d0: 798d c83e e7e9 a93d e07d f0be aaa8 9e3e
000000e0: 852d d43e c8f6 ffbe 5f9d bc3d d7e3 88bc
000000f0: d344 cd3e 0d31 e7bc f2ce e33f 368a ef3e
00000100: f2ec 8e3e 369d 1e3d 0398 863e fda7 883e
00000110: 91aa debf f59e 243f 2567 9b3e abc1 d8bd
00000120: c42f b23d d809 8bbe 6d63 2c3e 8971 733e
00000130: 2ba9 c03e 7667 cc3c 8562 27be 271a a23e
00000140: 0f70 82bc 3e2a a93d ea12 9bbf fc9c 1e3d
00000150: 4ec4 b7be fad2 17bf a4a3 133e 6695 19bf
00000160: 803d 85be 7d01 10be c8d1 cdbf 0254 2b3f
00000170: fdc2 c9bd 7a9b 843e d749 febd 37c6 bf3d

bigru.weight_ih_l0_reverse f4 [96, 32]
-0.2894539 -1.0065345 -0.24845402 -1.6565471 1.428356 1.104923 1.5637035 0.6124558
-0.7621737 1.0227658 1.0005071 -1.6554383 -1.7877154 0.15166508 0.8673123 0.49553677
-1.1724371 1.6185519 0.977162 -1.362213 -1.4098476 0.5451006 1.1372634 0.6843402
0.81937855 0.26403543 -1.8077753 -1.276829 0.5238466 -0.40466684 -1.1958518 0.97426826
0.040358387 0.7945792 0.073323295 0.11622408 -0.33492178 0.01571298 -0.27669963 -0.028263602
0.6371506 -5.699902 -3.4735172 0.53878826 0.41282383 0.5213067 0.03268114 0.0037251825
0.10511696 0.09687175 -1.4801664 0.89164203 0.37726474 -0.008127427 -0.9877286 -0.021713085
0.05414252 -0.10559132 0.3659203 0.0032646018 -0.88622326 0.6838607 -0.5775205 -0.11037803
-0.08885646 1.093756 0.11653187 0.7303706 0.3268842 -1.188287 -0.064901136 -0.4170543
0.56586075 -3.2263136 -1.6568457 -0.39169976 0.6103589 0.35834527 -1.1571964 -0.33319816
0.75961244 -0.112980194 -1.5690506 1.4574296 0.54301715 -0.59782577 -1.8494071 -0.57249343
0.45289716 0.27596387 0.032521408 -0.2495703 -0.2315174 0.6589733 0.08776773 -0.6867793
-0.18729329 0.89130485 0.37625453 -0.7764629 0.28546143 0.103972904 0.5858624 -0.8180776
-0.48910436 0.076232724 0.00894416 -0.9230953 -0.55719113 0.46199292 0.478964 1.1286526
0.09755524 0.7251365 0.46851438 -0.5939768 -0.7495062 0.5774149 0.77559626 0.18469748
0.08134389 1.7035981 -0.61382204 -0.7056816 -0.4217682 1.049585 -0.52108216 0.45420134
0.2236258 0.23150466 -0.0069134664 -1.3870808 -0.10641257 -0.530562 -0.1101252 -0.105702095
-0.66879916 0.23310943 0.5949416 -1.0102555 -0.85333633 0.24490707 -0.5255168 0.31045553
-0.26299077 0.835651 0.008124013 -0.2064371 -0.7496409 -0.4777132 0.11391794 0.7287892
-0.38144085 0.33510813 -1.3575293 -0.18604283 -0.43928316 -0.24148491 -0.3067362 1.870402
-0.62903255 0.36245304 -1.5545089 -1.2221489 0.65975434 2.0174754 0.62188005 0.5603228
-1.1194415 0.679318 0.991055 -0.7953169 -0.6126003 0.48130453 0.67230535 -0.7471445
-0.7556917 0.44226035 0.8893394 -0.8615335 -0.84034455 -0.22506797 0.749935 1.0221257
0.5701302 0.773314 -0.7197009 1.2238805 -0.45674804 0.46003538 -0.019631205 0.4694433
0.20025475 0.17347059 0.3570758 0.46974826 0.226054 -0.327013 0.16208638 0.052859973
-0.19004582 -0.77393365 -0.43571323 0.16889031 0.09000046 0.3908849 -0.22382055 0.053270865
-0.044224944 0.2783064 -0.609663 0.19745742 -0.17249939 0.15035287 0.082759574 0.4103812
0.06519026 0.06509024 0.29210398 -0.041783847 -0.28990316 0.36020195 0.42040524 0.3716334
0.55523896 0.8917013 0.21561201 1.1129551 -0.5303521 -0.25143096 -0.50795895 0.8669739
2.0420713 -1.1865968 -0.8294302 1.412745 8.758424 0.27749598 -0.3256646 0.33471945
0.18621661 -0.52024084 -1.166396 1.1315882 0.9316895 -0.8129114 -1.8350152 -0.10416765
-0.34112546 -0.97905004 0.896009 0.00066087965 -0.92635775 0.47958353 0.7244299 -3.2421584
00000000: 4d33 94be 1fd6 80bf bb6a 7ebe bc09 d4bf
00000010: 5fd4 b63f 1e6e 8d3f 7027 c83f e7c9 1c3f
00000020: d11d 43bf fde9 823f 9e10 803f 67e5 d3bf
00000030: dcd3 e4bf 174e 1b3e 2e08 5e3f ffb6 fd3e
00000040: 6b12 96bf b52c cf3f 4a27 7a3f ff5c aebf
00000050: e375 b4bf b78b 0b3f d991 913f eb30 2f3f
00000060: cbc2 513f a72f 873e 2e65 e7bf 226f a3bf
00000070: d01a 063f 7e30 cfbe ac11 99bf a569 793f
00000080: d64e 253d 8b69 4b3f 862a 963d e406 ee3d
00000090: de7a abbe 82b8 803c 93ab 8dbe 1289 e7bc
000000a0: 4d1c 233f 9965 b6c0 1b4e 5ec0 07ee 093f
000000b0: a55d d33e 5b74 053f a9dc 053d 3122 743b
000000c0: 9047 d73d b264 c63d 1876 bdbf a742 643f
000000d0: d828 c13e e628 05bc c8db 7cbf a4df b1bc
000000e0: 8cc4 5d3d 4340 d8bd e859 bb3e eef2 553b
000000f0: 87df 62bf 7f11 2f3f 62d8 13bf e00d e2bd
00000100: 60fa b5bd 3200 8c3f 43a8 ee3d 91f9 3a3f
00000110: 5e5d a73e ca19 98bf e3ea 84bd 2488 d5be
00000120: 40dc 103f ec7b 4ec0 8513 d4bf df8c c8be
00000130: 7b40 1c3f 0879 b73e 031f 94bf f398 aabe
00000140: f675 423f 2962 e7bd a6d6 c8bf 0e8d ba3f
00000150: 2c03 0b3f 1c0b 19bf 5fb9 ecbf ee8e 12bf
00000160: 23e2 e73e 234b 8d3e 2b35 053d 5b8f 7fbe
00000170: e612 6dbe 79b2 283f 91bf b33d c5d0 2fbf
00000180: d0c9 3fbe 8e2c 643f 6fa4 c03e 46c6 46bf
00000190: 0028 923e bfef d43d 14fb 153f 896d 51bf
000001a0: e36b fabe e71f 9c3d 878a 123c f94f 6cbf
000001b0: 14a4 0ebf 568a ec3e c53a f53e b077 903f
000001c0: 0bcb c73d 8ca2 393f 1ee1 ef3e dd0e 18bf
000001d0: a3df 3fbf 76d1 133f 7a8d 463f 5621 3d3e
000001e0: a097 a63d 810f da3f 7123 1dbf 8da7 34bf
000001f0: 00f2 d7be cd58 863f a465 05bf 148d e83e
00000200: 29fe 643e 8f0f 6d3e 5c8a e2bb dd8b b1bf
00000210: d5ee d9bd e9d2 07bf 5289 e1bd 577a d8bd
00000220: 6c36 2bbf 3db4 6e3e 184e 183f 0d50 81bf
00000230: 4074 5abf ebc8 7a3e 4588 06bf 07f4 9e3e
00000240: baa6 86be 39ed 553f 951a 053c 3f64 53be
00000250: 77e8 3fbf d396 f4be cf4d e93d ee91 3a3f
00000260: 374c c3be 4b93 ab3e 85c3 adbf 0382 3ebe
00000270: b9e9 e0be d247 77be 870c 9dbe 5569 ef3f
00000280: 4708 21bf 7293 b93e 26fa c6bf 606f 9cbf
00000290: a9e5 283f 511e 0140 8833 1f3f 5171 0f3f
000002a0: dc49 8fbf c9e7 2d3f c8b5 7d3f e399 4bbf
000002b0: 60d3 1cbf 8c6d f63e 341c 2c3f dd44 3fbf
000002c0: 0375 41bf f36f e23e bfab 633f 768d 5cbf
000002d0: d220 57bf 3878 66be bdfb 3f3f 04d5 823f
000002e0: 0ef4 113f e8f7 453f 513e 38bf 1ea8 9c3f
000002f0: e1da e9be c289 eb3e 9fd1 a0bc df5a f03e
00000300: 950f 4d3e 46a2 313e a4d2 b63e d882 f03e
00000310: b37a 673e 3f6e a7be f9f9 253e b383 583d
00000320: 5f9b 42be 8420 46bf ce15 dfbe 95f1 2c3e
00000330: 2952 b83d 1122 c83e 3731 65be 8d32 5a3d
00000340: 3725 35bd 2d7e 8e3e e012 1cbf 4732 4a3e
00000350: aea3 30be 1af6 193e da7d a93d 7c1d d23e
00000360: 7982 853d 084e 853d a78e 953e 8a25 2bbd
00000370: 306e 94be 646c b83e 5b3f d73e bc46 be3e
00000380: 2424 0e3f 8946 643f 65c9 5c3e 5075 8e3f
00000390: 28c5 07bf 8fbb 80be 9909 02bf 00f2 5d3f
000003a0: 4cb1 0240 67e2 97bf 8a55 54bf d4d4 b43f
000003b0: 8122 0c41 f413 8e3e 83bd a6be 5960 ab3e
000003c0: 91af 3e3e 812e 05bf 774c 95bf e2d7 903f
000003d0: 3483 6e3f f61a 50bf c7e1 eabf d955 d5bd
000003e0: ffa7 aebe 06a3 7abf d960 653f e23e 2d3a
000003f0: c825 6dbf f98b f53e 3d74 393f 867f 4fc0

bigru.weight_hh_l0_reverse f4 [96, 32]
-0.66171277 0.11302153 0.15363197 -0.6387482 0.39977652 0.6027361 0.38334727 -0.1751647
-0.26453778 -0.38692153 0.6903324 0.06257464 -0.9380586 -0.66691613 -0.24802747 0.1309345
-1.2142216 0.95255065 -0.46209905 -0.58068347 -1.0782487 -0.36318895 0.8064514 -0.97894377
-0.4552226 1.1860064 0.2638735 -0.68701446 -0.07705476 -1.1045715 -0.53918046 0.39775756
0.2906369 0.49930817 -0.14707185 0.21852486 0.23063809 0.13878858 -0.49122563 0.037130304
0.3380977 0.1874627 -0.27309772 0.07444694 0.25147086 0.02684709 -0.6929458 -0.17525572
-0.10398394 -0.044569235 0.028681085 -0.06375724 0.061059818 0.075141445 -0.22920503 0.32409304
-0.096938595 0.040031046 -0.10175109 -0.10257846 -0.002081231 -0.03634349 0.32778254 -0.55698633
0.010508895 0.94539523 0.62732095 0.5273729 -1.8211337 0.43607053 -1.0171913 5.888072
0.5914475 0.5566122 -0.7498089 -0.6051843 0.51497483 0.6149232 0.14193277 -0.12360066
-0.7321523 0.77796733 0.4768655 -0.20286976 -0.0024720123 0.058465827 0.35632676 1.1662961
-0.094238885 0.858648 -0.2578561 1.1561166 0.9939759 0.61045086 0.13866399 0.90917087
0.7476099 -0.15963934 -0.11239096 -0.24377868 0.3032704 -0.07626329 0.3518399 -1.6495217
-0.21011122 -0.04316848 -0.5025288 0.29712752 -0.3975339 -0.34713677 0.9024853 -0.3504418
0.5642481 -0.46203437 0.20646359 0.2504035 0.011906848 -0.116157025 -0.35530972 -1.7412236
-0.70898104 -0.36314604 -0.3270895 -1.703153 0.21826902 -0.93295217 0.0067374706 0.4222657
-1.517687 0.33462414 -0.043390818 0.05161085 -0.04601945 0.27918965 -0.2583807 1.4942536
-0.769427 -0.26429453 -1.8271079 -0.18192506 -0.061841432 -0.060734194 0.14449687 1.287047
1.9416691 -1.7386959 -1.5043017 -0.19966987 -0.4022675 -0.15110856 2.3585427 -1.1376473
0.8399218 -1.6327506 0.14638935 -0.34793216 1.3719541 -0.177124 -0.29120058 -3.892063
-0.5213 -0.3713607 -0.4372216 -0.3302835 0.5136155 0.13733898 0.6876701 0.071959585
-0.38118234 -0.7844518 0.43489993 0.59976125 -0.62875503 -0.47714207 -0.2065427 0.574828
-0.35105672 0.20398082 -0.41657177 -0.1551843 -0.40059015 -0.93062073 1.1976312 -0.9136104
-1.1864905 0.2975851 0.5617698 -0.2421673 0.4620469 -0.35485908 -0.0811506 0.09585982
-0.21160565 -0.43299142 -0.15619141 -0.24331778 0.691278 0.18465003 -0.07642951 1.2437896
-0.071980014 -0.14771557 0.106678516 0.4847156 -0.24945235 -0.080655575 -0.7021376 0.06098883
0.06878969 0.16076787 -0.18428591 -0.13233638 0.07127461 -0.2815257 0.06604006 0.2223562
-0.03198717 0.117464595 0.06835751 -0.026112357 0.24510749 0.26369298 -0.16678952 -0.9486483
0.3917287 0.48186836 0.5853688 -0.032018762 -0.46728316 0.2808522 -0.64261234 3.9783862
0.51194084 0.043752722 3.1213088 -0.64484084 -0.0058446857 0.12697355 0.14181294 -0.56303877
-0.1919239 -0.03337147 0.87587494 -0.3110857 -0.015390644 0.3877754 -0.41270214 1.2283086
-0.47133523 0.028621927 0.20215891 0.2609842 -0.6957482 0.73384887 -0.45512447 1.381297
00000000: 0266 29bf d577 e73d b351 1d3e 0185 23bf
00000010: 82af cc3e ea4c 1a3f 1846 c43e 605e 33be
00000020: 7f71 87be 941a c6be a0b9 303f 2227 803d
00000030: 9c24 70bf 04bb 2abf eafa 7dbe b213 063e
00000040: 9d6b 9bbf 5cda 733f 3f98 ecbe aca7 14bf
00000050: 0e04 8abf e7f3 b9be 9973 4e3f 0f9c 7abf
00000060: f012 e9be 0fcf 973f 6d1a 873e 2ee0 2fbf
00000070: e3ce 9dbd 9962 8dbf bb07 0abf e1a6 cb3e
00000080: 5cce 943e 52a5 ff3e 019a 16be fbc4 5f3e
00000090: 642c 6c3e 981e 0e3e ed81 fbbe f215 183d
000000a0: 241b ad3e 39f6 3f3e 77d3 8bbe a377 983d
000000b0: cac0 803e 6eee db3c e564 31bf 3c76 33be
000000c0: 88f5 d4bd 3b8e 36bd 98f4 ea3c 2893 82bd
000000d0: dc19 7a3d c2e3 993d b9b4 6abe 86ef a53e
000000e0: be87 c6bd 98f7 233d e062 d0bd a814 d2bd
000000f0: 4365 08bb e9dc 14bd 1dd3 a73e a896 0ebf
00000100: 802d 2c3c 6c05 723f 1b98 203f e901 073f
00000110: e91a e9bf a344 df3e 5333 82bf 166b bc40
00000120: 1a69 173f 237e 0e3f 7af3 3fbf 5ced 1abf
00000130: 64d5 033f 9b6b 1d3f d356 113e 5822 fdbd
00000140: 556e 3bbf de28 473f b727 f43e 17bd 4fbe
00000150: 7c01 22bb dd79 6f3d 7670 b63e 3149 953f
00000160: 5100 c1bd 5bd0 5b3f b705 84be a1fb 933f
00000170: 3475 7e3f 8246 1c3f effd 0d3e 6cbf 683f
00000180: 5d63 3f3f 7f78 23be 3b2d e6bd 1ea1 79be
00000190: 4246 9b3e ee2f 9cbd 5c24 b43e 8723 d3bf
000001a0: 6527 57be 6fd1 30bd baa5 00bf 1921 983e
000001b0: 9089 cbbe e9bb b1be 4709 673f 1c6d b3be
000001c0: 9072 103f c58f ecbe 316b 533e e334 803e
000001d0: f114 433c bce3 edbd 28eb b5be 6ae0 debf
000001e0: c87f 35bf 47ee b9be 4678 a7be eb00 dabf
000001f0: ea81 5f3e f4d5 6ebf 00c6 dc3b 3633 d83e
00000200: 9143 c2bf db53 ab3e 92ba 31bd e665 533d
00000210: e47e 3cbd f2f1 8e3e 7a4a 84be b443 bf3f
00000220: 2bf9 44bf 9d51 87be acde e9bf 904a 3abe
00000230: 714d 7dbd 6bc4 78bd fdf6 133e f5bd a43f
00000240: 9d88 f83f 968d debf f58c c0bf 4276 4cbe
00000250: 01f6 cdbe 34bc 1abe 5df2 1640 6d9e 91bf
00000260: 1d05 573f f9fd d0bf 17e7 153e 2a24 b2be
00000270: 319c af3f fe5f 35be 3e18 95be 8f17 79c0
00000280: eb73 05bf fd22 bebe 82db dfbe eb1a a9be
00000290: 4e7c 033f 97a2 0c3e 260b 303f 8c5f 933d
000002a0: 552a c3be d5d1 48bf 34ab de3e f489 193f
000002b0: 17f6 20bf f74b f4be ee7f 53be ee27 133f
000002c0: b5bd b3be 59e0 503e e548 d5be a2e8 1ebe
000002d0: 271a cdbe 293d 6ebf fb4b 993f 5fe2 69bf
000002e0: ecde 97bf 135d 983e 25d0 0f3f b4fa 77be
000002f0: 6991 ec3e 17b0 b5be 4932 a6bd 2752 c43d
00000300: 27af 58be 0db1 ddbe a4f0 1fbe 4c28 79be
00000310: 98f7 303f e614 3d3e 1387 9cbd 7f34 9f3f
00000320: 426a 93bd c042 17be 447a da3d a52c f83e
00000330: 7070 7fbe c02e a5bd 4abf 33bf 6ccf 793d
00000340: 9ce1 8c3d 55a0 243e 72b5 3cbe 3083 07be
00000350: 6cf8 913d 2324 90be 0340 873d 58b1 633e
00000360: fb04 03bd 4791 f03d 06ff 8b3d 95e9 d5bc
00000370: 75fd 7a3e c402 873e dfca 2abe 9dda 72bf
00000380: aa90 c83e 73b7 f63e bbda 153f 1b26 03bd
00000390: bd3f efbe dccb 8f3e 3e82 24bf e19d 7e40
000003a0: 8e0e 033f 0e36 333d 86c3 4740 4a14 25bf
000003b0: c784 bfbb 5b05 023e 6937 113e 4f23 10bf
000003c0: b387 44be 86b0 08bd 5739 603f a046 9fbe
000003d0: 0a29 7cbc 7f8a c63e b24d d3be 3739 9d3f
000003e0: da52 f1be 8878 ea3c bf02 4f3e b99f 853e
000003f0: 8e1c 32bf 85dd 3b3f 1306 e9be 57ce b03f

bigru.bias_ih_l0_reverse f4 [96]
-1.491788 0.21083105 0.3730798 -0.6346664 -0.6842758 -0.78174484 -0.08138044 0.9627988
-0.04415861 0.49741364 0.44020575 -0.044259954 0.09963478 -0.42359537 0.22209059 -1.2742682
-1.8138194 -1.555391 -0.018227367 0.3006182 0.15287068 -0.4081618 0.16435032 0.33639878
0.3368327 -1.0641364 0.37882808 -0.14419368 -1.6118634 0.16086702 0.6724296 -0.71786356
-0.118566066 -0.23019645 0.7147514 0.8039232 1.2173214 0.71563315 0.2191423 0.50649613
0.883836 0.18766576 0.47012573 0.8684949 0.18762718 0.33402446 0.114539556 -0.36072165
-1.5170708 -1.0017205 -0.7489061 1.2150173 -0.006537267 -0.372901 0.19846512 -0.40722924
-0.044984274 -0.5171504 0.39649865 0.17944296 -0.5143927 -0.27448305 1.2346779 0.2943807
0.3114244 0.001719144 -0.0542614 0.43097723 -0.016163228 -0.09593804 -0.045015387 -0.07010264
0.11516552 0.23018019 -0.050970137 0.025761548 1.3918233 1.4192674 -0.0047882926 -0.11509934
-0.000546172 -0.022157993 0.04637111 0.41683102 0.22971293 -0.06467191 -3.413591 0.8148165
-0.04569472 -0.030487675 -0.9073157 -0.047713205 0.01568281 0.13392614 0.59525293 -0.09081733
00000000: e9f2 bebf 18e4 573e 5104 bf3e 7f79 22bf
00000010: b32c 2fbf 6e20 48bf caaa a6bd fb79 763f
00000020: a9df 34bd 00ad fe3e a662 e13e ed49 35bd
00000030: 520d cc3d 7ee1 d8be b76b 633e 381b a3bf
00000040: 3c2b e8bf 0d17 c7bf 8f51 95bc a1ea 993e
00000050: 228a 1c3e 95fa d0be 734b 283e 763c ac3e
00000060: 5675 ac3e 9f35 88bf c1f5 c13e 82a7 13be
00000070: 8a51 cebf 53ba 243e 5924 2c3f e8c5 37bf
00000080: c4d2 f2bd 9eb8 6bbe f3f9 363f e9cd 4d3f
00000090: 30d1 9b3f bc33 373f d766 603e bba9 013f
000000a0: 1343 623f 742b 403e 52b4 f03e af55 5e3f
000000b0: 5721 403e 4105 ab3e b793 ea3d 82b0 b8be
000000c0: 602f c2bf 6138 80bf 4fb8 3fbf b085 9b3f
000000d0: 9236 d6bb e1ec bebe 713a 4b3e 5a80 d0be
000000e0: 6e41 38bd f863 04bf df01 cb3e e5bf 373e
000000f0: 3daf 03bf 0b89 8cbe ed09 9e3f 11b9 963e
00000100: 0573 9f3e e754 e13a 3441 5ebd 0ca9 dc3e
00000110: bf68 84bc 2a7b c4bd 0e62 38bd f991 8fbd
00000120: e6db eb3d 5bb4 6b3e 10c6 50bd e209 d33c
00000130: 4427 b23f 8eaa b53f 1ce7 9cbb 34b9 ebbd
00000140: fc2c 0fba ae84 b5bc a2ef 3d3d e06a d53e
00000150: de39 6b3e b572 84bd 4678 5ac0 d097 503f
00000160: 632a 3bbd 4ac1 f9bc d745 68bf ec6e 43bd
00000170: 3d79 803c ef23 093e 7f62 183f 70fe b9bd

bigru.bias_hh_l0_reverse f4 [96]
-1.491788 0.21083105 0.3730798 -0.6346664 -0.6842758 -0.78174484 -0.08138044 0.9627988
-0.04415861 0.49741364 0.44020575 -0.044259954 0.09963478 -0.42359537 0.22209059 -1.2742682
-1.8138194 -1.555391 -0.018227367 0.3006182 0.15287068 -0.4081618 0.16435032 0.33639878
0.3368327 -1.0641364 0.37882808 -0.14419368 -1.6118634 0.16086702 0.6724296 -0.71786356
-0.118566066 -0.23019645 0.7147514 0.8039232 1.2173214 0.71563315 0.2191423 0.50649613
0.883836 0.18766576 0.47012573 0.8684949 0.18762718 0.33402446 0.114539556 -0.36072165
-1.5170708 -1.0017205 -0.7489061 1.2150173 -0.006537267 -0.372901 0.19846512 -0.40722924
-0.044984274 -0.5171504 0.39649865 0.17944296 -0.5143927 -0.27448305 1.2346779 0.2943807
-0.07550241 -0.0337347 -0.07336919 -0.10919719 -0.005103517 0.30367664 -0.11357367 -0.07422242
-0.068669766 0.96686816 -0.063596904 0.049158003 1.3616475 1.717573 -0.34946075 -0.027562965
-0.1024572 -0.28120747 -0.26092288 0.49530044 0.30836335 -0.03882262 -3.4165711 0.723486
-0.2225057 0.17084111 -0.8454411 -0.077536784 0.23870672 0.3099012 0.6550107 -0.064446546
00000000: e9f2 bebf 18e4 573e 5104 bf3e 7f79 22bf
00000010: b32c 2fbf 6e20 48bf caaa a6bd fb79 763f
00000020: a9df 34bd 00ad fe3e a662 e13e ed49 35bd
00000030: 520d cc3d 7ee1 d8be b76b 633e 381b a3bf
00000040: 3c2b e8bf 0d17 c7bf 8f51 95bc a1ea 993e
00000050: 228a 1c3e 95fa d0be 734b 283e 763c ac3e
00000060: 5675 ac3e 9f35 88bf c1f5 c13e 82a7 13be
00000070: 8a51 cebf 53ba 243e 5924 2c3f e8c5 37bf
00000080: c4d2 f2bd 9eb8 6bbe f3f9 363f e9cd 4d3f
00000090: 30d1 9b3f bc33 373f d766 603e bba9 013f
000000a0: 1343 623f 742b 403e 52b4 f03e af55 5e3f
000000b0: 5721 403e 4105 ab3e b793 ea3d 82b0 b8be
000000c0: 602f c2bf 6138 80bf 4fb8 3fbf b085 9b3f
000000d0: 9236 d6bb e1ec bebe 713a 4b3e 5a80 d0be
000000e0: 6e41 38bd f863 04bf df01 cb3e e5bf 373e
000000f0: 3daf 03bf 0b89 8cbe ed09 9e3f 11b9 963e
00000100: 02a1 9abd 662d 0abd 9642 96bd c7a2 dfbd
00000110: 673b a7bb 817b 9b3e 5099 e8bd ed01 98bd
00000120: bca2 8cbd ac84 773f 183f 82bd e759 493d
00000130: 774a ae3f 6fd9 db3f 85ec b2be bacb e1bc
00000140: 15d5 d1bd 6dfa 8fbe af97 85be 0598 fd3e
00000150: cde1 9d3e 7804 1fbd 1aa9 5ac0 6136 393f
00000160: 89d8 63be f9f0 2e3e d46e 58bf 9bcb 9ebd
00000170: 896f 743e 5fab 9e3e c8ae 273f 8dfc 83bd

bigru.weight_ih_l1 f4 [96, 64]
1.1045634 -0.21332684 0.16065215 -0.7124521 0.028422756 0.64177036 0.47260216 0.22205697
-0.20081167 -0.17624849 -0.30159914 0.58505106 -0.18798149 0.39401087 -0.27783263 -1.3736022
-0.33441538 -0.097843744 -0.78705055 -0.6038865 -0.109646805 -0.2174434 0.10899338 -0.0017179555
-0.65444493 0.8140708 -2.3913584 -0.59948593 1.8486552 0.7382042 0.9114818 0.42830205
1.092347 0.05596104 -0.36855596 0.0404529 0.007313134 0.67468506 0.19488053 -0.3401503
-0.26154736 0.06307454 1.620191 0.046380024 0.028809642 0.35925427 0.15697578 -1.3027632
-0.3185255 0.607009 0.7609142 0.6176766 0.46616986 -0.6969828 0.25682902 -0.28471586
-0.44065222 -0.1384812 0.45502964 -1.7845676 0.6882168 0.804273 -0.13378023 -0.37236345
-0.22518432 0.32357168 0.30564496 -0.63086027 0.58409697 0.57274795 0.25124314 0.6458756
-0.40239343 0.25151557 1.5982394 0.6659358 -0.3234955 -0.1282085 -0.36099353 0.25929466
0.1203004 0.22822486 0.0543346 2.6427233 -1.4475502 0.19445428 2.3294156 -2.640325
-2.2446933 0.72280663 -0.2032982 0.2021904 2.3565178 -0.24385919 -0.07153664 0.36003473
-1.2745754 0.24907796 -0.079657026 -0.92214674 -0.07436693 0.20384967 -0.44677824 1.6425159
3.0641646 -0.31896517 -0.2763952 0.11475748 -0.67748106 -0.12257139 0.5841045 0.53325343
-0.34689543 0.16989219 -0.4917313 0.07084096 0.15906543 -0.43373334 -0.09531691 0.061522968
-0.997064 0.24552071 0.31430784 1.1770201 0.15546554 0.42079306 0.08439234 1.423725
-0.100528784 -0.32967126 -1.1889894 0.85434794 -0.029109988 0.82351846 2.9602883 0.8066027
-0.50424266 -2.3615263 1.4685115 0.4809557 0.07321132 -0.101803705 -0.15948349 0.042096503
0.38725594 0.53839684 0.70709324 -5.383395 -5.057764 -1.0346024 0.26058155 -0.4758876
2.1275923 1.6826301 -0.23277321 -1.5142252 3.5222657 -1.6155206 -0.43488446 -2.3938339
-0.03348227 0.41803348 0.94805604 -0.7820599 0.030733498 -0.17461836 -0.004853703 -0.023821576
-3.2332377 -0.11836265 1.0609534 -0.32806644 -0.23137619 -0.13767676 0.34608623 0.4470396
-0.52609825 0.36009553 -0.124889836 0.30593333 0.083293244 0.2672882 -0.018082956 0.2522989
0.3051659 0.45220146 0.2545543 0.36614275 0.15735766 -0.21402231 -0.90059644 -0.21560973
-0.35752603 0.6755488 -0.44719204 -0.51952296 0.34409463 -0.13040826 0.6505825 -1.834079
0.09179482 0.16142657 0.16180259 0.45138553 -0.747583 -0.20452438 -0.36171484 -0.30924094
0.5795884 0.07699072 -0.01787933 -0.83978564 0.24854419 0.49101633 0.6474022 -0.6430266
-0.19489208 0.2106207 0.17731291 -0.5156639 0.8702498 0.8353784 -0.33208406 -1.9387547
-0.8964868 0.13453016 0.13805671 -0.7728956 -0.2405461 0.5798247 -0.2409605 -0.7718353
1.474615 -0.71177256 -0.33733132 0.30654025 -0.44988304 -0.18161242 1.3798727 0.9493125
-0.43872795 0.30180278 -0.12908775 -0.52981925 -0.15786569 -0.019875487 -0.28271124 -0.66721123
0.50614375 0.13755032 0.28638119 1.903009 -0.7939537 -0.8135144 -0.6225237 -0.8253544
00000000: 5562 8d3f 5a72 5abe ff81 243e 4363 36bf
00000010: d7d6 e83c 104b 243f e9f8 f13e e762 633e
00000020: 93a1 4dbe 7c7a 34be 346b 9abe e8c5 153f
00000030: 387e 40be cbbb c93e 1440 8ebe 32d2 afbf
00000040: 7e38 abbe 4d62 c8bd 257c 49bf 4e98 1abf
00000050: 818e e0bd 7ca9 5ebe ec37 df3d 052d e1ba
00000060: b489 27bf f266 503f 040c 19c0 e977 19bf
00000070: bca0 ec3f f3fa 3c3f df56 693f 684a db3e
00000080: 07d2 8b3f 6737 653d 5eb3 bcbe f1b1 253d
00000090: 04a3 ef3b 29b8 2c3f c38e 473e 2e28 aebe
000000a0: 89e9 85be 392d 813d 6b62 cf3f fbf8 3d3d
000000b0: 3302 ec3c 2df0 b73e 42be 203e f2c0 a6bf
000000c0: c615 a3be f164 1b3f 46cb 423f 0e20 1e3f
000000d0: d1ad ee3e 776d 32bf 187f 833e 47c6 91be
000000e0: 2b9d e1be 04ce 0dbe a5f9 e83e b66c e4bf
000000f0: fa2e 303f d6e4 4d3f affd 08be 6ca6 bebe
00000100: b896 66be 30ab a53e 7f7d 9c3e 0f80 21bf
00000110: 6187 153f 9c9f 123f f1a2 803e 1a58 253f
00000120: 8306 cebe a6c6 803e 1c93 cc3f c57a 2a3f
00000130: 34a1 a5be 1749 03be 25d4 b8be 45c2 843e
00000140: 0e60 f63d c7b3 693e f58d 5e3d 6122 2940
00000150: 5349 b9bf 061f 473e 2515 1540 16fb 28c0
00000160: 0ea9 0fc0 db09 393f 672d 50be 000b 4f3e
00000170: 30d1 1640 39b6 79be cd81 92bd 7956 b83e
00000180: 4925 a3bf 4b0e 7f3e 3923 a3bd cf11 6cbf
00000190: b04d 98bd f8bd 503e 1ec0 e4be f63d d23f
000001a0: 461b 4440 674f a3be ac83 8dbe f805 eb3d
000001b0: 666f 2dbf b506 fbbd df87 153f 4c83 083f
000001c0: 479c b1be 38f8 2d3e 34c4 fbbe 1115 913d
000001d0: 0ce2 223e 4c12 debe 8335 c3bd 82ff 7b3d
000001e0: 963f 7fbf c869 7b3e f5ec a03e 98a8 963f
000001f0: 5c32 1f3e 3072 d73e e4d5 ac3d 9f3c b63f
00000200: 09e2 cdbd acca a8be ce30 98bf 8cb6 5a3f
00000210: 1278 eebc 1bd2 523f 5d75 3d40 847d 4e3f
00000220: 0c16 01bf 3f23 17c0 2ff8 bb3f d33f f63e
00000230: d1ef 953d 767e d0bd a44f 23be 626d 2c3d
00000240: 6946 c63e 60d4 093f 1004 353f c644 acc0
00000250: 34d9 a1c0 da6d 84bf f26a 853e 8aa7 f3be
00000260: 792a 0840 6c60 d73f 1a5c 6ebe 22d2 c1bf
00000270: cd6c 6140 61c9 cebf 2da9 debe 9334 19c0
00000280: b424 09bd 7c08 d63e cdb3 723f 1435 48bf
00000290: d1c4 fb3c 28cf 32be d00b 9fbb 7725 c3bc
000002a0: 5eed 4ec0 1e68 f2bd 52cd 873f 53f8 a7be
000002b0: e1ed 6cbe 23fb 0cbe 3732 b13e 60e2 e43e
000002c0: 60ae 06bf 715e b83e 3ec6 ffbd 4ba3 9c3e
000002d0: a695 aa3d 00da 883e b522 94bc 522d 813e
000002e0: b43e 9c3e f386 e73e f154 823e 1077 bb3e
000002f0: 5e22 213e aa28 5bbe 7d8d 66bf ccc8 5cbe
00000300: a70d b7be c4f0 2c3f 5bf6 e4be 75ff 04bf
00000310: 2c2d b03e be89 05be 938c 263f 1ac3 eabf
00000320: ecfe bb3d 024d 253e 94af 253e 011c e73e
00000330: 9961 3fbf d76e 51be b032 b9be d454 9ebe
00000340: e85f 143f 50ad 9d3d ac77 92bc 31fc 56bf
00000350: 5e82 7e3e 7e66 fb3e 27bc 253f 649d 24bf
00000360: ca91 47be f4ac 573e 8491 353e 8d02 04bf
00000370: b1c8 5e3f 5cdb 553f ec06 aabe 1d29 f8bf
00000380: 2980 65bf 46c2 093e bd5e 0d3e 7cdc 45bf
00000390: b851 76be 646f 143f 59be 76be 0097 45bf
000003a0: 2fc0 bc3f ba36 36bf b1b6 acbe d8f2 9c3e
000003b0: 1257 e6be 9bf8 39be ab9f b03f 2506 733f
000003c0: f3a0 e0be e585 9a3e 942f 04be 3ca2 07bf
000003d0: 8ba7 21be ebd1 a2bc 87bf 90be 5bce 2abf
000003e0: a392 013f fed9 0c3e 8ea0 923e cd95 f33f
000003f0: 8d40 4bbf 7b42 50bf b75d 1fbf 6d4a 53bf

bigru.weight_hh_l1 f4 [96, 32]
-0.00048765793 0.247983 -1.4829705 -0.27702323 -0.30148932 -1.8370333 -0.25477135 -0.24636178
0.12837121 -0.5045323 1.1101264 0.52118134 0.026840935 3.8707936 0.35285217 -0.6153988
-0.33351758 -0.3071091 0.047760602 0.22839463 -0.119935244 -3.3679023 0.8868726 -1.2424252
-1.3703998 1.3479937 -0.10286874 -1.7251091 1.5303825 -0.067557596 -0.8985556 -0.44321314
0.05810842 2.3295617 -0.49647546 0.004796615 0.039509762 -0.75413513 1.0104182 0.041833624
0.27651998 -0.19521725 1.254226 0.22457935 -0.16257483 -0.8961234 -0.3215898 0.35263464
-0.38517657 -0.47764173 -0.08655156 -0.029328173 0.6151627 -1.3558006 0.12057484 -0.12082312
-1.3003364 0.45053366 -0.09231222 -0.5179016 1.336676 0.37273318 -0.14862323 -1.1412677
0.29176518 0.55023295 -1.5755831 0.046943303 -0.065060735 0.08899913 -0.2634171 -0.31852803
-0.23358934 0.3437526 0.35962418 2.0903745 0.39759913 -0.54818314 0.28141248 -0.68157184
-0.1732628 -0.018815052 -0.8020793 0.62671924 0.257822 -0.027612673 -0.7962823 -0.67338544
0.82098955 0.6029251 0.7743075 -0.74440074 0.64619607 0.32141095 -1.0563776 -0.4271752
-0.6433352 1.1893268 0.54559356 0.19615515 0.16730358 1.3560275 -0.56636053 -0.22901966
0.08885237 0.70217156 0.88142496 0.015489392 -0.81325555 0.6467261 0.112256214 -0.12179204
-0.091260225 0.623409 0.82425845 0.20126463 0.6551353 0.90664667 0.35701343 1.3459698
-1.1782728 -0.94744575 1.1985179 1.2783629 0.79835427 0.15512238 0.14908126 -0.16609637
-0.61193925 -0.3505937 0.15937276 2.248434 -0.9549027 1.3619243 -2.214891 1.249712
-1.0523821 0.22955328 -0.08112367 0.533295 0.079320304 0.33669335 1.0165619 -1.104956
0.14952658 1.4894304 0.78309804 0.93624306 0.30584136 2.2931304 1.4813592 -0.7441369
0.13538569 -0.066649795 -0.12127399 0.6455579 -0.24703383 0.31485426 -1.6495261 -0.08004538
0.55804557 -0.57333106 0.2575061 1.1648322 0.91321456 1.4223273 1.3805951 0.4885268
-0.21782365 -0.4283742 -0.35096496 -0.6734902 -0.82829773 -0.86320484 -1.9294453 1.0109191
-0.5647734 1.2721502 0.22782189 0.10541125 0.38460183 -1.6298206 1.4201456 -0.6712685
3.191118 -0.6160478 0.5196999 -0.47563943 -1.7933488 -0.32064232 -2.0015705 0.56133336
-0.35406464 0.10377007 -0.4622791 0.04373793 -0.69072104 -0.79402053 0.12364731 -0.33901918
-0.844489 -0.12796198 -0.738002 -0.8501754 0.79029906 1.4431878 0.045060765 -0.100121155
-0.23087327 0.692672 0.15053263 -0.6339534 -0.37518844 1.0023949 -0.33598 -1.184514
-1.2083083 -0.62080014 1.425759 1.4964049 0.46128932 0.3976053 0.07262168 -0.25709522
0.20890574 1.3259863 -0.52468437 0.17627108 -0.17088823 1.0276606 -0.11610945 -0.2057715
-0.28231594 0.0013251816 3.4515631 0.015421911 0.12974274 0.10253067 -0.35187668 -0.39213207
-0.7609966 1.1098989 0.14096451 -0.01131309 0.10299281 -0.4404833 -0.74914354 2.6502466
-1.0253069 1.2537202 0.28998634 -2.4365704 0.32884306 0.49490136 0.35284796 -0.06532659
00000000: 57ac ffb9 41ef 7d3e fad1 bdbf fdd5 8dbe
00000010: cf5c 9abe e823 ebbf 6471 82be 4346 7cbe
00000020: be73 033e 0729 01bf 9f18 8e3f 246c 053f
00000030: 85e1 db3c 15bb 7740 0aa9 b43e c78a 1dbf
00000040: d1c2 aabe 673d 9dbe 9fa0 433d 48e0 693e
00000050: 9ca0 f5bd b68b 57c0 150a 633f ca07 9fbf
00000060: 4369 afbf 0f8b ac3f d9ac d2bd 60d0 dcbf
00000070: 93e3 c33f a35b 8abd bd07 66bf d5ec e2be
00000080: 1803 6e3d 8a17 1540 0832 febe ec2c 9d3b
00000090: fdd4 213d 000f 41bf 6255 813f bc59 2b3d
000000a0: 0794 8d3e 08e7 47be 7a8a a03f 21f8 653e
000000b0: 047a 26be 5868 65bf 6ba7 a4be 878c b43e
000000c0: dd35 c5be 758d f4be f241 b1bd a341 f0bc
000000d0: 4d7b 1d3f e08a adbf f1ef f63d 1d72 f7bd
000000e0: 6c71 a6bf 59ac e63e 300e bdbd 3395 04bf
000000f0: 3318 ab3f e2d6 be3e b030 18be 0f15 92bf
00000100: 3f62 953e 11dc 0c3f b5ac c9bf 9f47 403d
00000110: 903e 85bd 2d45 b63d 9bde 86be 1b16 a3be
00000120: 0b32 6fbe 5700 b03e a920 b83e b2c8 0540
00000130: 1d92 cb3e bb55 0cbf 4c15 903e 7e7b 2ebf
00000140: ce6b 31be 0622 9abc 1255 4dbf ac70 203f
00000150: 3f01 843e f933 e2bc 28d9 4bbf fd62 2cbf
00000160: 5f2c 523f 4d59 1a3f 0439 463f 0c91 3ebf
00000170: 1b6d 253f fa8f a43e 6237 87bf b5b6 dabe
00000180: 9eb1 24bf dc3b 983f 05ac 0b3f e5dc 483e
00000190: a151 2b3e 4f92 ad3f 01fd 10bf 2184 6abe
000001a0: 3bf8 b53d 84c1 333f 11a5 613f 38c7 7d3c
000001b0: 8431 50bf d78f 253f 96e6 e53d 1b6e f9bd
000001c0: a4e6 babd bb97 1f3f 9a02 533f 5118 4e3e
000001d0: f2b6 273f ff19 683f 77ca b63e bd48 ac3f
000001e0: a5d1 96bf ce8b 72bf 0969 993f 65a1 a33f
000001f0: f260 4c3f 67d8 1e3e c2a8 183e 2b15 2abe
00000200: 0da8 1cbf 0481 b3be 9d32 233e 58e6 0f40
00000210: 8174 74bf 8953 ae3f c6c0 0dc0 90f6 9f3f
00000220: 75b4 86bf 0410 6b3e 2b24 a6bd 0586 083f
00000230: af72 a23d 1263 ac3e b31e 823f 336f 8dbf
00000240: 7f1d 193e a8a5 be3f 1d79 483f a0ad 6f3f
00000250: 3d97 9c3e a6c2 1240 2e9d bd3f c27f 3ebf
00000260: 8ca2 0a3e b07f 88bd 7f5e f8bd 4843 253f
00000270: 70f6 7cbe 9434 a13e ac23 d3bf d5ee a3bd
00000280: 13dc 0e3f d3c5 12bf d7d7 833e 3919 953f
00000290: 6ec8 693f d20e b63f 57b7 b03f 2f20 fa3e
000002a0: 2a0d 5fbe dd53 dbbe aeb1 b3be db69 2cbf
000002b0: 520b 54bf fefa 5cbf 10f8 f6bf cc65 813f
000002c0: fd94 10bf d1d5 a23f 244a 693e dae1 d73d
000002d0: 88ea c43e f69d d0bf 55c7 b53f 41d8 2bbf
000002e0: 473b 4c40 4fb5 1dbf 0d0b 053f 0387 f3be
000002f0: 748c e5bf 3b2b a4be bb19 00c0 8bb3 0f3f
00000300: f647 b5be 6785 d43d d9af ecbe 8b26 333d
00000310: 18d3 30bf ee44 4bbf cd3a fd3d ec93 adbe
00000320: 6e30 58bf 7708 03be b3ed 3cbf 18a5 59bf
00000330: 0a51 4a3f 61ba b83f a391 383d 520c cdbd
00000340: 0b6a 6cbe f452 313f 3a25 1a3e c54a 22bf
00000350: b318 c0be 7a4e 803f 9205 acbe 289e 97bf
00000360: d9a9 9abf c2ec 1ebf 457f b63f 328a bf3f
00000370: 1d2e ec3e ec92 cb3e adba 943d fca1 83be
00000380: 63eb 553e ebb9 a93f b751 06bf 6880 343e
00000390: 53fd 2ebe 628a 833f cbca edbd c4b5 52be
000003a0: b78b 90be b7b1 ad3a 69e6 5c40 2fac 7c3c
000003b0: 48db 043e 9afb d13d 2e29 b4be 89c5 c8be
000003c0: acd0 42bf 2b11 8e3f 0059 103e 8a5a 39bc
000003d0: e5ed d23d 0787 e1be dfc7 3fbf a49d 2940
000003e0: 423d 83bf e779 a03f 1779 943e c5f0 1bc0
000003f0: 1e5e a83e b663 fd3e 7da8 b43e f2c9 85bd

bigru.bias_ih_l1 f4 [96]
0.46145216 -0.3501392 -0.40065387 -0.3675623 -0.72113407 -0.028521601 0.3822968 -0.28500292
-0.51590073 -0.47322983 0.06350387 0.016651358 -0.43434122 0.21754631 -0.3661499 -0.071263485
-0.14705224 -0.20574002 -0.13272713 -0.92632926 -0.6408553 -0.4878629 -0.18108264 -0.18868688
-0.21379472 0.07392035 -0.038233843 -0.23133078 -0.05665454 -0.46125737 -0.4390028 0.10483667
-0.13667774 0.38519052 0.35487235 -0.9176534 0.2950065 0.11777516 0.47372857 -0.022935703
-0.07709627 -0.33350033 0.044537447 -0.101898715 0.18395993 0.25716394 0.003566834 -0.10005027
-0.4853043 0.38231865 0.41727102 0.16492206 -0.086561926 0.19444683 0.34824738 0.22772114
0.5578456 -0.019481989 0.049450886 0.6614778 0.5068502 -0.09116452 0.40886983 -0.78542453
0.39123315 -0.281219 -0.08713174 -0.019460473 -0.068054356 0.03154091 0.03471427 0.061455216
0.12486191 -0.19166179 0.19488437 0.08066502 -0.07844166 0.03911496 0.09612411 -0.2731093
-0.5933833 -0.027987016 0.16364886 -0.29251444 0.14517863 -0.0450621 -0.0007622733 -0.12708338
0.09976665 0.24099402 0.035159726 -0.10986203 0.011667217 0.121205285 0.17851637 -0.027732594
00000000: 7543 ec3e 7245 b3be 8122 cdbe 2031 bcbe
00000010: 3e9c 38bf 22a6 e9bc 68bc c33e e7eb 91be
00000020: 1212 04bf 2e4b f2be 510e 823d 6e68 883c
00000030: f961 debe 76c4 5e3e 0078 bbbe 97f2 91bd
00000040: dd94 16be 83ad 52be 9fe9 07be ea23 6dbf
00000050: 180f 24bf 2bc9 f9be ba6d 39be 2237 41be
00000060: 01ed 5abe 8d63 973d 179b 1cbd fae1 6cbe
00000070: 970e 68bd ed29 ecbe fac4 e0be 9cb4 d63d
00000080: 40f5 0bbe b137 c53e d4b1 b53e 55eb 6abf
00000090: 180b 973e 1a34 f13d 8d8c f23e a8e3 bbbc
000000a0: a6e4 9dbd 8ec0 aabe e66c 363d 46b0 d0bd
000000b0: fe5f 3c3e feaa 833e 8bc1 693b 28e7 ccbd
000000c0: ce79 f8be 45bf c33e 8ca4 d53e 54e1 283e
000000d0: 6147 b1bd 121d 473e 7b4d b23e bb2f 693e
000000e0: f8ce 0e3f b198 9fbc 038d 4a3d 9c56 293f
000000f0: efc0 013f 77b4 babd 6357 d13e 9511 49bf
00000100: b64f c83e f0fb 8fbe 2072 b2bd 926b 9fbc
00000110: 1560 8bbd 0b31 013d 8d30 0e3d 77b8 7b3d
00000120: 9ab7 ff3d fd42 44be c58f 473e b433 a53d
00000130: 05a6 a0bd 0237 203d b8dc c43d fbd4 8bbe
00000140: f8e7 17bf 0745 e5bc 9193 273e 74c4 95be
00000150: b5a9 143e 0993 38bd 4cd3 47ba 2522 02be
00000160: 7552 cc3d 23c7 763e a503 103d 58ff e0bd
00000170: db27 3f3c 7a3a f83d ffcc 363e 772f e3bc
