converter/checkpoints/HFET/IgVg/poly_regression_model.pth (torch, 61279 bytes, 2 tensors)

linear.weight f4 [18, 834]
00000000: a42e 623e 08f2 093e cddb 72be 08c7 d3be
00000010: 9bbc cd3c 7cd8 f33e c6aa b03c dc71 923d
00000020: 5763 103e 70da b4be 6c7e c53d 2100 413d
00000030: c808 e6bd 1a78 363b f16c 0d3d ebe5 063d
00000040: 5e55 abbd 27e7 98bd 22f4 d5bd c66b 05bd
00000050: 37ed a7bd 2e51 bdbd 61ed 5dbe 1027 4b3d
00000060: 77fe 81be 583a 57be f725 b83c f3c4 e93d
00000070: f7c0 913b 2bfe 38bd 33f6 523e 348d 113e
00000080: 60e8 033e 2d66 b23c 7e03 3b3b 18f9 613d
00000090: a27e 393d 2774 92bd 9c53 b93d fb10 0f3d
000000a0: 386f d6bd 7c40 d1bc 3797 5b3d 0815 243d
000000b0: 8f7d 253d fe31 fabd fdb8 74be c0f9 98bd
000000c0: 21f5 b4bb dfcc a0bd 0347 fb3c 22da 3e3d
000000d0: d37f cebc 766d b13d 815f d73b e9d4 cbbd
000000e0: 73eb 453c 211e 253d 0b1d 99be b0f0 4fbd
000000f0: 44b3 ecbd 9f7a ecbd 4cdc bd3d 4be1 8cbd
00000100: ec50 003e 3b61 6d3d e837 d83d 1bd0 183c
00000110: d710 f63c 4c64 a63d d1e5 1d3e 2a1f 813c
00000120: cd24 143e 2b11 2dbb faac df3c f661 c6bd
00000130: e4c0 67bd 778f ed3c 8ec6 973d 715f e6bd
00000140: 6e15 a0bd 7995 a3bd dd8a f43c 6f3d 163d
00000150: 4823 45bd 57a6 193d 62fb 323e 4fdc fa3c
00000160: b4b5 bb3d 8a39 013e 02b8 bdbd 3fb7 d5bb
00000170: 10e9 8f3c e8cb 793d fdfe 98bd 9e0a 2ebc
00000180: 7d51 f8bd e790 5ebd 8ffa 3abd aa2f c3bd
00000190: 7f9b 0d3c 268a ba3d 0aa4 bf3c f01c aeba
000001a0: 3e17 19bd 8042 8abc f4be 9dbd 4fc4 82bd
000001b0: 0844 52bd ac58 58bd 2a5c 4f3c 554d 0b3d
000001c0: ef6d 7abd efd2 a63c 6498 74bd 366f 843d
000001d0: 7377 d3ba 594c 03bd e90c c83a f432 6dbd
000001e0: db13 33bb 48d2 9d3b 5122 ba3c bc81 83bc
000001f0: 8685 acbd e023 bebd 2ecd 4bbd 69b6 93bd
00000200: e165 c3bc f935 aabc 2326 76bd cb12 9b3c
00000210: 3ddf ecbc 99d4 733d d975 823d 7b93 e63d
00000220: 34ef 99bc 6866 49bd 7169 833c 8f99 a7bd
00000230: 582a 1a3d 0f04 9cbc 8892 c3bd 6560 cf3c
00000240: c96d 3dbd 4068 903c 4157 863d f6ce 643d
00000250: 801c ac3d 5550 893d 43dd cc3d d994 a8bd
00000260: 9cdd 523d 391f 3f3c 90d0 cd3d 09bc 1bbc
00000270: a606 5a3d eec6 d33d 426e eb3d 37bc d3bd
00000280: 59c4 103b 23ee 3a3c d65e 993b 5322 67be
00000290: 0abf b3bc d145 9e3b 4486 17bd 36b6 9b3d
000002a0: 886b a2bd 692e cebd d22a bebc 3901 a1bd
000002b0: e7a4 a73d d3f2 8f3b b4b7 fc3c 859b 833d
000002c0: 18fa 9338 805b e33c 8a9d 523d 0f7c d63d
000002d0: 2ae1 2c3c d2d8 943c dd1c 153c 85e1 f83a
000002e0: f475 0b3d a07f 58bd 8a95 023d 9642 753c
000002f0: 0aa4 50be 40fb 99bb 1744 ecbb 8087 94bd
00000300: 358b d23d d3bd 493d e759 40be f13e 2abe
00000310: 9b96 39be 3295 e5bb 8696 d73d 4c7e 8dbc
00000320: c94e 86bd bffc 0e3d f4b6 263d 4e78 38ba
00000330: 5e41 7a3d 6a01 713a 0c82 dbbc 9eea 87bc
00000340: 23a5 b93c e425 b23d 6ea8 0b3e 7aab b63d
00000350: 1571 3bbc 6566 803d 5fae b73d e553 b03d
00000360: bbab 673d 072f 653b 3bcc a93d 3386 36bc
00000370: 0d79 33bd d710 e13d 54b8 48bc fbfe be3d
00000380: ee8d 24bd 2d5f 173d 64c8 053e 24ee 453e
00000390: 40cb f43d 0196 9c3d dff8 2fbd 6016 d23d
000003a0: e424 923d 965e 3c3e 2d93 453d 84c0 c13d
000003b0: 01e8 5b3d 91fb 0e3c e780 113d ae46 5a3c
000003c0: ace2 143d 92f0 dbbc c6fe 223b 12d8 8e3c
000003d0: e69e 46bd f690 f3bc 4f86 a6bd c40d 563d
000003e0: 2d20 4d3c 2bfa 233d acf2 30be cdd1 efbd
000003f0: fb4f f6bc 646c 55bd 7467 1dbd 5e41 edbd
0.22088104 0.13471234 -0.2371666 -0.41362786 0.025114348 0.47626102 0.021565806 0.07150623
0.14100395 -0.35322905 0.09643254 0.047119264 -0.11232144 0.0027842582 0.034527723 0.03293411
-0.08365892 -0.07465964 -0.10446955 -0.032573484 -0.08199542 -0.092439994 -0.21672584 0.0495978
-0.25389454 -0.2101835 0.02247904 0.11414518 0.004448052 -0.04516427 0.2060173 0.14214021
0.12881613 0.021777237 0.0028536017 0.055169195 0.045286782 -0.071510606 0.0904915 0.034928303
-0.10470432 -0.025543444 0.053611007 0.04005912 0.040402945 -0.122165665 -0.23898692 -0.07469511
-0.0055223857 -0.07851576 0.03067351 0.046594746 -0.025207436 0.08663456 0.0065726642 -0.09952719
0.012080061 0.040311936 -0.2990497 -0.050766647 -0.1155763 -0.115468256 0.09270534 -0.06878909
0.12530869 0.057954054 0.10557538 0.00932696 0.030037327 0.08124599 0.15419699 0.01576193
0.14467163 -0.0026407938 0.027304161 -0.09686653 -0.05658044 0.028999073 0.07410918 -0.11248673
-0.078165874 -0.07987494 0.029851371 0.03667968 -0.04812935 0.03751215 0.17478707 0.03062263
0.091655165 0.12619606 -0.09263612 -0.006522089 0.017567188 0.060985476 -0.0747051 -0.0106226485
-0.12124918 -0.05433741 -0.045649108 -0.095305756 0.00864303 0.09108381 0.02339365 -0.001328377
-0.03737568 -0.016877413 -0.07702437 -0.06385099 -0.05133441 -0.05281894 0.012656251 0.034009296
-0.061139997 0.020364253 -0.059715644 0.06466524 -0.0016133621 -0.032055233 0.0015262637 -0.05790992
-0.0027325067 0.0048163272 0.022721441 -0.016053073 -0.08423905 -0.09284186 -0.04975622 -0.07212526
-0.02385229 -0.02077769 -0.060094964 0.01892986 -0.028915042 0.05952892 0.06370134 0.112585984
-0.018790819 -0.049169928 0.01604149 -0.08183586 0.03763804 -0.019044904 -0.09549433 0.02531452
-0.046247277 0.017627835 0.06559611 0.055861436 0.084038734 0.06704775 0.1000314 -0.082315154
0.051480874 0.011665159 0.10049546 -0.00950528 0.053228997 0.10340677 0.114956394 -0.103386335
0.0022089689 0.011409315 0.004680495 -0.22571687 -0.02194168 0.0048301 -0.03699328 0.07603113
-0.07930666 -0.10067446 -0.023213778 -0.07861561 0.081857495 0.0043929606 0.030849315 0.06426147
7.05609e-05 0.027753592 0.051419772 0.10472881 0.01055173 0.018169794 0.00910112 0.0018988108
0.034048036 -0.052856088 0.031880893 0.014969489 -0.20375076 -0.004699141 -0.0072102654 -0.07252407
0.10280458 0.049253296 -0.18784295 -0.16625573 -0.18123858 -0.007006311 0.10526757 -0.017272137
-0.06557996 0.034909006 0.04070182 -0.000703697 0.061097495 0.0009193631 -0.02679541 -0.016591366
0.022661751 0.08698633 0.1363847 0.08919425 -0.011440535 0.0626953 0.089688055 0.086097516
0.05656026 0.0034970657 0.08290907 -0.011140394 -0.043816615 0.1098954 -0.0122509785 0.093259774
-0.040174417 0.036956 0.13064724 0.19329125 0.11952829 0.076457985 -0.04296195 0.10258174
0.071359426 0.18395457 0.04823606 0.094605476 0.053688053 0.00872697 0.03552332 0.013322515
0.036348984 -0.026848111 0.0024871095 0.017437015 -0.04849138 -0.029732209 -0.08131086 0.05225922
0.012519878 0.0400335 -0.17280072 -0.11709938 -0.030067435 -0.052105322 -0.03842874 -0.115847334

linear.bias f4 [18]
00000000: 38b9 2a3e e818 023e 87c2 623e 09b3 093e
00000010: 6689 c53d 5471 b03e cef2 483e 04b6 643e
00000020: e533 8e3e ec4a f23d ab81 c93e 178c 493e
00000030: eedb 003e 8ed1 0d3e 2bd9 973e 3c47 4a3e
00000040: 6e69 a53e 5394 843e
0.16672218 0.12704813 0.22144519 0.13447203 0.09645347 0.34461462 0.19623873 0.22335058
0.27773967 0.118306965 0.3935674 0.19682346 0.12583897 0.1384947 0.29657874 0.19753736
0.32307 0.25894412
