converter/checkpoints/HFET/BV/bv_poly_regression_model.pth (torch, 41707 bytes, 2 tensors)

linear.weight f4 [12, 841]
000000 12 c4 31 3e a9 14 2b bd 23 46 d6 be 3f 65 b5 3c
       0.17359951 -0.04176775 -0.41850385 0.022143004
000010 dc 82 aa 3c da 14 b1 3d 0b 5e 13 3d cf 4c 22 3d
       0.020814352 0.08646555 0.03597836 0.03962403
000020 40 8c 3d 3d 95 28 2a be 42 0d 3c bc 3f d4 0e bd
       0.04627633 -0.16617043 -0.01147777 -0.034870382
000030 be f6 16 bd b6 7a 19 3d 89 fd cd bc 28 b6 0e 3e
       -0.036856405 0.037470542 -0.025145309 0.13936675
000040 2a c8 85 bc f5 cf db bd 07 5f 53 be a0 1d cf bd
       -0.016330797 -0.10733024 -0.20641719 -0.101130724
000050 cc d6 48 be 57 5c 3b 3c aa 74 4a bd 8e 39 f2 bd
       -0.19613189 0.01143559 -0.049427666 -0.11827384
000060 74 7f 27 bd 54 0e b6 bd 01 85 af bc 4f b2 f7 bb
       -0.040893033 -0.088894516 -0.021425726 -0.007559098
000070 fe 86 29 3d b0 bf ac bd 35 95 93 3d aa 67 cd bc
       0.041388504 -0.08434999 0.07206193 -0.025073845
000080 df e0 bc 3d bf 50 1a 3d 4a 06 d0 bb ec 91 9c 3d
       0.09222578 0.03767466 -0.006348406 0.0764502
000090 86 a6 75 3c db af 0b 3d 00 51 35 bd c6 c0 f9 bc
       0.014993316 0.034103256 -0.0442667 -0.03048743
0000a0 eb bc 2e 3c fd 6a 17 3d c7 f3 84 3d 59 55 32 3e
       0.010665159 0.036967266 0.06491809 0.1741537
0000b0 a4 8e 1c 3d 3b 75 19 bd 83 1e 8f 3d 05 14 a4 3c
       0.03822197 -0.037465315 0.069882415 0.020029077
0000c0 e5 d1 af 3d 97 36 72 bd bc f6 46 3b ae 6a 91 bd
       0.08584956 -0.059134092 0.0030359467 -0.07100426
0000d0 f8 6d 03 be 61 6f 3c 3d 4b e5 40 bc 0c 8f 94 3c
       -0.12834918 0.046004657 -0.011773418 0.018134616
0000e0 af 41 49 3d 1b 96 38 3d 59 45 f5 bc dc f3 a7 bd
       0.049134906 0.045065027 -0.029940294 -0.08200809
0000f0 79 4e 9e bd c8 c0 a3 bb 63 88 10 3d 16 cb d6 bd
       -0.07729811 -0.0049973466 0.03528632 -0.10487954
000100 53 ee 29 3e bb e0 cb 3d 9d 9e 35 3e 7e c2 6e 3e
       0.1659482 0.09954973 0.17736287 0.2331638
000110 a6 c0 c5 3d c6 75 44 3e fa 3d 64 3d 16 20 8b 3c
       0.096558854 0.19185552 0.055723168 0.016983073
000120 51 c3 68 3d ac c0 bf bb 7d 04 6f 3c 02 60 9b bd
       0.056826893 -0.0058518257 0.014588472 -0.075866714
000130 1f f3 fa bc c3 db 4b bc c6 34 89 3d 9b a4 2d bd
       -0.030633507 -0.012442532 0.06699519 -0.042393308
000140 e0 96 87 bc 57 7b 27 be 90 83 49 3a f1 4c fc bc
       -0.016551435 -0.16355644 0.0007687146 -0.030798407
000150 bc fd 89 bd 17 2c 2b bc 6f d4 c0 3d e1 e0 17 be
       -0.06737849 -0.010447524 0.094155185 -0.14831878
000160 64 e7 16 3c d0 31 52 3d 59 37 4f 3b 3b a2 7c bd
       0.009210441 0.051317036 0.0031618683 -0.061678153
000170 44 e5 70 3d e4 32 81 3d 62 73 40 be 47 97 9e bd
       0.058812395 0.06308535 -0.18794015 -0.077436976
000180 69 00 c6 bc 49 1c cc bb 6c 40 42 3c 09 a0 b6 bd
       -0.024170117 -0.006228958 0.01185618 -0.08917243
000190 b2 38 a4 bc bd 47 2c 3c 78 08 0f bb 60 ec 6c bd
       -0.020046566 0.010515151 -0.0021825116 -0.057842612
0001a0 c0 24 62 bc 66 d0 68 bc 76 21 77 bd 8c d8 22 bd
       -0.013802707 -0.014209842 -0.060334645 -0.039757296
0001b0 7d ff 6e bd 71 99 ee bc 1a 95 16 3d 0e e0 2f ba
       -0.05834912 -0.029125901 0.036763288 -0.0006709107
0001c0 a8 f1 21 3d 83 fc 09 bd 8c a3 8d bd 61 fa 05 3d
       0.039537102 -0.03368808 -0.0691596 0.032709483
0001d0 88 11 0d bc 8d d2 30 bb f4 30 25 39 14 67 89 bc
       -0.008610137 -0.0026980967 0.00015753863 -0.016772784
0001e0 18 4a b8 bb c8 79 82 bd f9 08 38 bd 18 b1 2e bd
       -0.005624067 -0.06370884 -0.044930432 -0.04264936
0001f0 72 b5 78 bd 89 4d cb bb 84 1f e5 3b 2d 8d 95 bb
       -0.060719915 -0.0062043113 0.0069922823 -0.0045639486
000200 49 2f 99 3d d5 ae 03 3c e4 ff d7 3d 10 51 63 3d
       0.07479722 0.008037289 0.10546854 0.05549723
000210 3f dc 1a bd 5e da ae 3d 26 e4 94 3d ce 3f 4d bc
       -0.0378077 0.08537744 0.07270078 -0.012527419
000220 a0 7b 06 be 20 79 66 bd b1 08 a0 3c 30 eb 16 ba
       -0.13133097 -0.056267858 0.019535394 -0.00057570916
000230 ab 4d 6f 3d 32 5e cd bc 32 40 30 3d 02 2a 28 bd
       0.05842368 -0.02506933 0.04302997 -0.041055687
000240 53 47 87 3c 0e 7d b1 3d c7 76 13 3d 78 32 5c 3d
       0.016513502 0.086664304 0.036001947 0.05375907
000250 5e 16 94 3d 03 ee 71 bc c3 61 db 3d 9d e8 87 3d
       0.07230829 -0.014766219 0.10712006 0.06636164
000260 78 e5 b5 3d 0d 33 7c 3d 7a 24 62 3d d3 f9 d1 bc
       0.08881658 0.061572123 0.055210568 -0.02563182
000270 ef da 03 3d dc 95 02 3d 1d fd 87 3d 0f 95 f6 bc
       0.032191213 0.0318812 0.066400744 -0.030100374
000280 b6 03 e9 3d 42 3c 06 3d be 74 67 3d 85 e9 82 bd
       0.11377661 0.03277231 0.05650782 -0.063921966
000290 22 f3 93 3d 0f 5a b1 3d f2 3e c8 3c ba ad 63 3d
       0.07224108 0.086597554 0.024444077 0.0555856
0002a0 0c c1 6f 3d da 60 2c bd 5d c3 50 3b 70 3f 2e 3b
       0.058533713 -0.042084552 0.0031854727 0.0026588105
0002b0 58 12 1a bc ad c2 9a 3a 93 f0 88 bc d3 5c 88 ba
       -0.009403788 0.0011807285 -0.016716277 -0.001040364
0002c0 3c 94 fd 3b a3 85 91 3d 5a 18 8f 3d 8e 5c 0b bd
       0.007738618 0.07105567 0.069870666 -0.034023814
0002d0 8f fe ed 3c 3c 0c c9 3d 1b b1 17 bd 95 18 3d bd
       0.029052047 0.09816787 -0.037034135 -0.04616602
0002e0 12 79 ed 3c ac e2 34 3d f2 14 38 3d 3f 24 35 3d
       0.028988395 0.044161484 0.04494185 0.04422402
0002f0 d8 21 10 bd 79 cb 87 3a 7d 77 d7 3b cf 24 35 bd
       -0.035188526 0.0010360322 0.0065755234 -0.044224557
000300 c8 c1 9f 3d dd 42 e7 3d 90 44 2b bd 4d c1 19 bd
       0.07800633 0.1129205 -0.041813433 -0.03753786
000310 66 ca 96 bd c3 26 51 bb 78 72 55 bb 80 c3 5e bd
       -0.07362823 -0.0031913973 -0.003256945 -0.054385662
000320 ab 77 38 bd c9 24 a7 3c 0b 31 9c 3d 25 3e 85 bd
       -0.045036 0.020403283 0.07626542 -0.06505994
000330 78 1d 1e 3d 61 af 33 bc de bd 56 bc 2e a9 12 3d
       0.038602322 -0.010967107 -0.013106791 0.035805874
000340 8c 5b b9 3c dd 71 9f 3d 7e a6 8c 3d 76 39 81 3d
       0.02262666 0.077853896 0.06867693 0.06309788
000350 89 24 f4 3c 50 40 4d 3d 75 ff 06 3e c4 93 05 3e
       0.029802578 0.05011016 0.13183387 0.1304465
000360 3b a5 0f 3e 76 75 8f 3c 1a 3b 14 3e 21 d9 1e 3e
       0.14027874 0.017512064 0.1447567 0.15512516
000370 fa 74 0c 3e a1 ba 81 3e 56 34 1f 3d 92 e3 e8 3d
       0.13716498 0.253377 0.03886827 0.113715306
000380 f9 63 d8 3d 6c 6a a8 3c 60 bf 9a 3d 3b 04 39 3d
       0.10565943 0.020558558 0.07556033 0.04517005
000390 77 9d 60 bc 33 ad 29 bd 66 d5 55 bd 2d d0 20 3e
       -0.013709418 -0.04142494 -0.052205466 0.15704413
0003a0 d5 65 46 3d 35 fd 3e 3e 16 8a eb 3c f2 74 0f 3e
       0.04843696 0.18651278 0.028752368 0.14009455
0003b0 0b 55 25 3d 26 69 dd 3b 12 48 87 3d 15 6a 09 3c
       0.040364306 0.0067569194 0.06605543 0.008387108
0003c0 0d b6 94 3d bd cf 62 bb ad ac f9 bc b0 0a 2c 3c
       0.07261286 -0.0034608685 -0.030477846 0.010500595
0003d0 c3 f2 ff ba 1b 67 11 bc 72 d6 fc 3a cc a1 a5 3c
       -0.0019527305 -0.00887468 0.0019289984 0.020218752
0003e0 35 6b 31 3c 2a d8 ee 3c 6f 84 68 bd 67 ac ac bd
       0.010828783 0.02915581 -0.056766924 -0.08431321
0003f0 6d 65 f4 bd 6a c0 3b 3b 6a c5 a0 bc 9f 8c 23 be
       -0.11933408 0.0028648623 -0.019625384 -0.15971611

linear.bias f4 [12]
000000 81 b1 f4 3d 8f 85 85 3e e2 92 05 3e 21 f9 93 ba
       0.11947919 0.2607846 0.13044313 -0.0011289456
000010 e5 ff 6d 3d 17 6f c8 3d d4 9f 4f 3e af 4f 0d 3e
       0.05810537 0.09786814 0.20275813 0.13799928
000020 2c 1b a9 3e 86 d6 a4 3e 80 ab 91 3e 6c 8a 95 3e
       0.33028543 0.32194918 0.28451157 0.2920717
