converter/checkpoints/HFET/IdVg/poly_regression_model.pth (torch, 68511 bytes, 2 tensors)

linear.weight f4 [20, 841]
0	0x3eb177ce	0.34661716
1	0x3de67665	0.11253051
2	0x3eb129b6	0.34602135
3	0x3e61eb9b	0.22062533
4	0x3d31985a	0.043358184
5	0xbe79e822	-0.24404958
6	0x3cc13286	0.023583662
7	0x3da3f7ea	0.0800627
8	0x3d6ef990	0.05834347
9	0xbd91289d	-0.070878245
10	0x3d503a1c	0.050836667
11	0x3cba6c7a	0.022756804
12	0xbc3a7b96	-0.011382004
13	0x3c9247dc	0.01785653
14	0x3c26919c	0.010166552
15	0x3da2bd66	0.07946281
16	0x3d1ee066	0.03878822
17	0x3dbce3af	0.09223115
18	0x3dd5194f	0.10405218
19	0x3df5ad30	0.119959235
20	0x3db80732	0.089857474
21	0xbceca8df	-0.028889118
22	0x3b5f7994	0.0034099566
23	0x3e0ab4d1	0.13545538
24	0xbbda7cbd	-0.006667702
25	0xbcb0f6a0	-0.021601975
26	0x3c9b6be7	0.01897235
27	0xbe025b9c	-0.12730259
28	0xbb5a276d	-0.003328766
29	0xbd939388	-0.07205874
30	0xbe958d6a	-0.29209453
31	0xbdfcaf3a	-0.12338109
32	0xbdc38b15	-0.09548012
33	0x3b8bcad5	0.004266123
34	0x3c271865	0.010198687
35	0x3d0f7995	0.03502806
36	0xbc8560bc	-0.016281478
37	0x3cc8b5e2	0.024500791
38	0xbc907760	-0.017635047
39	0xbc98027d	-0.018555874
40	0xbb975000	-0.004617691
41	0xbcb0bcb4	-0.021574356
42	0x3c72bd3e	0.014815627
43	0xbd0ac51d	-0.033879388
44	0xbce9614a	-0.028488774
45	0xbd3af3ab	-0.045642536
46	0x3d805821	0.06266809
47	0xbc380309	-0.011231192
48	0xba620d3d	-0.00086231885
49	0xbde909c5	-0.113788165
50	0xbdbb9247	-0.091587596
51	0x3cac9de3	0.02107138
52	0xbd71d13c	-0.059037432
53	0x3d1aab60	0.037761092
54	0x3acfc6e7	0.0015852124
55	0x3d8448de	0.06459211
56	0x3cc6cc69	0.024267392
57	0xba92a7d5	-0.0011188934
58	0xbbb477c0	-0.0055074394
59	0xbc9ab868	-0.01888676
60	0x39508b23	0.00019888258
61	0xbca2bb23	-0.019864624
62	0x3b8f9457	0.004381697
63	0xbd6f1493	-0.05836923
64	0x3cbe12e4	0.023202367
65	0xbe1c2692	-0.15249088
66	0xbc65f6e7	-0.014035917
67	0xbd861bc2	-0.06548263
68	0xbdbbfc2b	-0.091789566
69	0xbdff13f6	-0.12454979
70	0xbd6e04d2	-0.058110066
71	0xbd937bd0	-0.0720135
72	0x3e2441af	0.16040681
73	0xbd93ec74	-0.07222834
74	0xbddcf517	-0.10788935
75	0xbd104d09	-0.035229716
76	0x3d249d12	0.040188856
77	0x3cbc1116	0.022957366
78	0x3c96f314	0.018426456
79	0x3df0f20c	0.11764917
80	0x3bd146ef	0.00638663
81	0x3d4db5d4	0.050222233
82	0x3d5f1cbc	0.054470763
83	0x3c16fe07	0.009215838
84	0x3de00be7	0.1093977
85	0xbd875e70	-0.066098094
86	0xbc0ed446	-0.008717602
87	0xbd0844f7	-0.033268895
88	0xbd4abe57	-0.04949793
89	0xbcc6e748	-0.024280205
90	0x3d1f66d5	0.038916428
91	0x3dce79da	0.10081835
92	0x3da5252e	0.08063732
93	0x3d84e4de	0.064889655
94	0xbd31e341	-0.043429617
95	0x3d0d6cae	0.034527473
96	0x3e1a4f40	0.15069294
97	0x3bf6b3ba	0.0075287493
98	0x3ccb4019	0.024810838
99	0xbd840131	-0.0644554
100	0xbad25528	-0.0016047107
101	0x3cb009b0	0.021488994
102	0xbca873d1	-0.020563038
103	0xbc96002c	-0.018310629
104	0xbdcb1836	-0.09916727
105	0xbd49c6e3	-0.04926194
106	0xbd2289a0	-0.03968203
107	0xbd73e9ed	-0.05954926
108	0xbc64fff9	-0.013977044
109	0xbce61689	-0.028086917
110	0xbe13e719	-0.14443626
111	0x3c145867	0.00905428
112	0xbde495be	-0.111613736
113	0xbdaeae29	-0.08529312
114	0xbcf4b618	-0.029871985
115	0xbdb3e72e	-0.087843284
116	0x3c4359a0	0.011923224
117	0xbd4f2ab2	-0.050577827
118	0xbc2a057c	-0.010377284
119	0xbd857f8b	-0.065184675
120	0xbd0cbef5	-0.0343618
121	0xbd5363f4	-0.051608995
122	0x38b7db16	8.766928e-05
123	0xbd086da7	-0.033307698
124	0xbd88c6b9	-0.06678528
125	0xbd30a38e	-0.043124728
126	0xbca7330c	-0.020410083
127	0xbdef831a	-0.116949275
128	0x3cf21407	0.029550565
129	0xbc0aa739	-0.008462721
130	0x3d8b05b2	0.06788196
131	0x3cca1203	0.024666792
132	0xbd86a51e	-0.06574462
133	0x3d357ac6	0.04430654
134	0xbc37823c	-0.011200484
135	0x3c97ebc0	0.018545032
136	0xbd8caf89	-0.06869418
137	0xbdadb829	-0.084823914
138	0x3c4600e3	0.012085172
139	0x3c8a1950	0.016857773
140	0x3d209a7b	0.039209824
141	0xbd62862c	-0.055303738
142	0x3d112e16	0.03544434
143	0xbcbe306c	-0.023216449
144	0x3b1f30f2	0.0024290648
145	0x3d769544	0.060200945
146	0x3c0be346	0.008538073
147	0x3d28e486	0.041233562
148	0x3bfc5902	0.0077010402
149	0xbde01a86	-0.10942559
150	0xbc072695	-0.008248945
151	0xbd624369	-0.05524007
152	0xbd3127a5	-0.0432507
153	0xbde43182	-0.11142255
154	0xbae95ca3	-0.0017804097
155	0xbd8a570f	-0.06754886
156	0x3d75bb77	0.059993234
157	0x3c808c07	0.01569177
158	0x3cac0642	0.020999078
159	0xbd546503	-0.051854145
160	0x3db1ec65	0.08687667
161	0xbc9f9522	-0.019480292
162	0x3b8cdd89	0.00429887
163	0xbd9bc8b9	-0.07606644
164	0x3d7d82ae	0.061892204
165	0x3c7598da	0.014990056
166	0xbd2f8916	-0.042855345
167	0x3c7458a8	0.014913715
168	0xbcd92448	-0.026506558
169	0xbd9d2505	-0.076730765
170	0xbd7b4f78	-0.061355084
171	0x3c5a5ea7	0.013328231
172	0x3d5da907	0.054116275
173	0xbd1b1bf5	-0.03786846
174	0xbd46a350	-0.04849559
175	0x3bc941f2	0.0061418945
176	0xbd33f705	-0.043936748
177	0x3cce5eaa	0.025191624
178	0x3d6f3e74	0.05840917
179	0xbcc0a4de	-0.023516115
180	0x3d44379f	0.047904607
181	0x3d6404a7	0.0556685
182	0xbc267ace	-0.010161115
183	0xbd4b0f7d	-0.049575318
184	0x3ac878ff	0.0015294849
185	0x3dbe0ea5	0.09280137
186	0x3d4a2fc8	0.049361974
187	0xbbe322f7	-0.0069316584
188	0xbcc18996	-0.023625176
189	0x3cc5bb42	0.024137143
190	0x3d31bf1a	0.04339514
191	0xbd328ea5	-0.043593068
192	0x3d6c416d	0.057679582
193	0x3d7970eb	0.060898703
194	0x3bec398d	0.007209009
195	0x3d0464e8	0.032322794
196	0x3c487c9b	0.0122367395
197	0x3d2e18ee	0.042504244
198	0x3d3a7c1c	0.045528516
199	0x3d0662dd	0.032809127
200	0xbcb5d8eb	-0.022198161
201	0x3c18cd07	0.009326226
202	0x3d12bdef	0.035825666
203	0x3b08071c	0.002075619
204	0xbc942c7e	-0.018087622
205	0xbe07286a	-0.1319901
206	0xbdff1fd0	-0.1245724
207	0xbda6d055	-0.08145205
208	0xbd92fff7	-0.07177728
209	0xbd25815f	-0.04040658
210	0xbd83035b	-0.063971244
211	0xbd720ecc	-0.059096143
212	0xbcc596ea	-0.024119813
213	0xbd4278eb	-0.047478598
214	0xbd0fc7c5	-0.035102624
215	0x3c7eac13	0.015543955
216	0x3bde379e	0.0067815324
217	0xbd8e5b50	-0.0695101
218	0xbd32fd58	-0.04369864
219	0xbdb08763	-0.08619573
220	0xbdb55fa7	-0.08856135
221	0x3ce004e7	0.027346088
222	0xbdd1ffb6	-0.10253851
223	0xbd9b6f69	-0.07589609
224	0xbe08b7cd	-0.13351364
225	0xbcb8fa4e	-0.022580292
226	0xbc9c961c	-0.019114546
227	0x3d314d78	0.04328677
228	0xbd3a6cec	-0.045514032
229	0xbdcf65db	-0.10126849
230	0xbdc05bd1	-0.093925126
231	0x3dc73452	0.09726776
232	0x3b1812c9	0.0023204556
233	0x3cc86d15	0.024466077
234	0x3d42e1b4	0.04757853
235	0x3d3ef469	0.046619806
236	0x3d7f6c30	0.062359035
237	0xbdc3279c	-0.09529039
238	0xbd8d294a	-0.06892641
239	0xbd9e99e5	-0.07744197
240	0x3d65a4e5	0.05606546
241	0x3cafc007	0.02145387
242	0xbc8b5067	-0.017006112
243	0xbd51fdd7	-0.05126747
244	0x3cc9334e	0.024560597
245	0xbcaa33e1	-0.02077669
246	0x3c4af1cd	0.012386751
247	0x3c64f88e	0.013975276
248	0xbc6133a1	-0.013745219
249	0x3ce8d3fd	0.028421396
250	0x3d331960	0.04372537
251	0xbc8f5617	-0.017497106
252	0x3d097472	0.033558317
253	0x3bd77b45	0.006575974
254	0x3c1227d1	0.008920626
255	0xbb0562cb	-0.0020353075

linear.bias f4 [20]
0	0x3e95e93b	0.29279503
1	0x3da948d8	0.08265847
2	0x3dd803b6	0.10547583
3	0x3e9993c7	0.29995558
4	0x3edc2303	0.42995462
5	0x3d5135f0	0.05107683
6	0x3ea2148e	0.31656307
7	0x3e8de114	0.27710783
8	0x3e9cb712	0.30608422
9	0x3ead7382	0.33877188
10	0x3eee65a1	0.46561912
11	0x3e536559	0.2064413
12	0x3e5ce3a1	0.21571209
13	0x3e5f7b02	0.21824268
14	0x3e64eda8	0.22356284
15	0x3e6071cc	0.2191841
16	0x3eb29308	0.348778
17	0x3e9fff4d	0.31249467
18	0x3bd5924c	0.006517684
19	0x3ee98726	0.45610923
